best_model_20240618_071017_32_lr-3.pth (torch, 791010 bytes, 16 tensors)

conv1.weight f4 [24, 1, 5, 5]
00000000: 7b26 e23d 59f8 72bd 62d0 123f 1fab f7be
00000010: e6af 143e 054b 19be d9f8 6cbe 8aba 4fbe
00000020: c4d5 0cbe 50df 8e3b a75b 1b3e 254e 1cbe
00000030: 70e8 21be 2c77 7f3e 8c92 143e 296a 74bc
00000040: af70 0ebf 9dc5 c2be c3fb 85be 965d 803e
00000050: 78aa 2abd 39d4 9ebe e511 9a3e 2665 03be
00000060: 58a7 6abe 6660 343e 16b2 273e 00e7 4e3e
00000070: 9d8c 873d c998 d43e 874b eebe c0b6 64be
00000080: 3a55 8fbd 9ae4 e83e ebc5 cebd 640f a53e
00000090: fac5 d83e a4aa a63d bd60 8d3e 1009 a1be
000000a0: f421 5b3d fb32 10bf ede0 e63a d27d babd
000000b0: 698f 293e 5db4 743d cf69 1ebf b4f6 40bf
000000c0: 26ab d3be 883a e03d d6f2 213d 286f 3abd
000000d0: 07d9 823d 4e7d 23be ba36 b4be d92e f7bd
000000e0: 9815 87bd 33cf 64be 7e8d 03bf 269d debe
000000f0: e3f8 aa3e 375e a2be cbf0 823e d48b ff3d
00000100: 72b6 92bb aba7 18bf 58f4 7bbe b4af 90be
00000110: ebb0 9ebe 00c5 893d fa90 41bd 37ba 0dbe
00000120: a847 503e f48b a8be db08 00bd e22b b1be
00000130: b97d d53d a0dc 08be d4f7 8a3d bc1e 77be
00000140: b146 87be 2073 223e 8785 fa3d f01e 203e
00000150: 51c3 023f a4e9 c33e 1505 a33a a909 31bd
00000160: 7c36 113f dc24 0abf f8c4 eb3d 2530 09bf
00000170: 3ea6 e43d 88c7 35be 8ae8 25bf 804c 4e3e
00000180: b166 d13d 5a0f a2bd 47de 0ebc 8344 1a3d
00000190: 8d27 10be 5529 8dbe 352d 8bbc 8f53 7ebe
000001a0: b453 f6be 724b 4d3d 03c6 f5bd 56b0 5fbe
000001b0: e937 323d f7f6 e53d 0123 873e 8d61 21bf
000001c0: 8ea8 fbbb 577b e9be ec2b 753e 0cc7 cdbb
000001d0: 1ecd d1bd 7a77 343e 417b b93d c826 4a3d
000001e0: 3ba8 a63d f742 91be cd55 b9be 88bb 31be
000001f0: a34b 01be 53bf c1bd e2bd 1b3f f3df 8b3e
00000200: 8aad 7abe f21c 21be 611e 2dbd e823 0b3d
00000210: 7d5b 813d 4ff7 5c3e 54f6 453e dae9 d4be
00000220: 8adf 8dbe e963 a5be ff35 19be 6ac3 fe3e
00000230: 14e7 3bbe 72eb 05bf 3e58 10bf 0e16 9c3d
00000240: 0683 dd3d 30e8 593e 97cd 83be 5215 eb3e
00000250: 6850 39be d63b fdbe b618 373f ecc2 82be
00000260: a8ab 28be 0168 70be b189 96bc 6be0 243e
00000270: 5108 4cbd 3265 143c 1119 bcbe b32b 72bb
00000280: 695a babd e53b 813e 93c2 62be 4781 0d3e
00000290: f8e1 253e 8b82 03bf 0453 7d3e bc02 b9bd
000002a0: 8490 f3be 154d 5a3e a919 133e 8709 a4be
000002b0: 86ba f9bd 6bfa 353e 8d81 423e f792 393d
000002c0: a773 be3e f1ea f8bb 0c2d bb3d 30d4 ca3e
000002d0: ea28 45be 8631 803e 021e dc3d d0c1 5b3e
000002e0: f585 923e b70c 05bf 2483 0f3f bd49 15bf
000002f0: 2735 c63e ed50 aabe 7180 1abf abde ac3e
00000300: 97b7 113e 97d1 21bf 5ece 06be 4f00 503e
00000310: adf9 c2bd 6900 363e 4fb9 14bf 54e1 6dbe
00000320: 0b52 a43e c091 fe3e a880 5dbe 0ba5 15bf
00000330: 08a3 a9be cbd3 5ebd 51ae cdbd ab3d 353e
00000340: 9279 483e 4c32 71be 66de 9ebe a88d 61bd
00000350: 9ff7 85be 128a ba3d 1fb9 df3e 3383 e83e
00000360: 9d7f 093e 6d6e 2cbf c823 0fbf da35 803c
00000370: 229b 49be bf70 ccbd a098 b43d bcdb 4dbe
00000380: 96e8 92be ccb0 303e 1acb 8b3d 3c5e ae3e
00000390: 6370 8c3e 7c86 783e 8ed4 ccbd 6866 203d
000003a0: 3dec 97be 973f 793e d19a c23e e564 1bbd
000003b0: d8f3 c93e 2b23 643d 4e7a e3be 8b60 2cbe
000003c0: f131 81bc d7a4 3ebe 28dc d93d f5b3 133e
000003d0: 2db6 283f f4b8 bbbd 5a6e 35bf 6033 abbe
000003e0: 2b73 f0be ebc5 f03e 1387 0dbe 6a72 96be
000003f0: 908c d33d 80bd 8cbc ec2d adbd a393 2f3e
0.11042496 -0.059318874 0.57349217 -0.48372743 0.14520225 -0.14970024 -0.23141803 -0.20286003
-0.1375342 0.004360117 0.15171681 -0.15264185 -0.15811324 0.24947804 0.14509028 -0.014917889
-0.5564069 -0.38041392 -0.2616864 0.250714 -0.041666478 -0.31021288 0.30091777 -0.12831554
-0.22915399 0.17614898 0.16376528 0.20205307 0.06618617 0.41522816 -0.46541998 -0.22335339
-0.069986776 0.4548691 -0.100963436 0.32238305 0.42338544 0.08138016 0.27612868 -0.31452227
0.053499177 -0.5632779 0.001761464 -0.091060296 0.16558613 0.05974232 -0.618802 -0.7537644
-0.41341513 0.10948664 0.039538227 -0.045516163 0.06389051 -0.15965769 -0.35198003 -0.12069482
-0.065959156 -0.22344665 -0.51387775 -0.4347927 0.3339301 -0.31712505 0.25574335 0.12477842
-0.0044773156 -0.5963084 -0.24604928 -0.2825905 -0.30994353 0.06727028 -0.0472574 -0.13840567
0.20339835 -0.32919276 -0.031258445 -0.34603792 0.1042437 -0.13365412 0.06785551 -0.24132818
-0.2642112 0.15864229 0.122324996 0.15636802 0.5107928 0.3826419 0.0012437428 -0.043222103
0.5672376 -0.5396249 0.11512178 -0.5358909 0.11164521 -0.17751896 -0.6480795 0.2014637
0.10224665 -0.07913084 -0.008719987 0.037662994 -0.14077587 -0.27570596 -0.01698933 -0.24836563
-0.48110735 0.05012078 -0.12000658 -0.2184461 0.04351035 0.112287454 0.26393893 -0.63039476
-0.0076800054 -0.45601913 0.23942536 -0.0062798318 -0.10244201 0.17623702 0.09056712 0.04935339
0.08137556 -0.28371403 -0.36198273 -0.17356694 -0.1262651 -0.0946032 0.60836613 0.27319297
-0.24480262 -0.15733698 -0.0422653 0.03396979 0.06316278 0.21578716 0.19332248 -0.41584665
-0.2770961 -0.32302788 -0.14962004 0.49758464 -0.18349868 -0.52312386 -0.56384647 0.07621394
0.10816006 0.21279979 -0.2574279 0.45914704 -0.18097079 -0.49459714 0.7152208 -0.2553934
-0.16471732 -0.23477174 -0.018376203 0.16101234 -0.04981262 0.00905733 -0.36737874 -0.0036952316
-0.090992756 0.25241008 -0.22144537 0.13818847 0.16199481 -0.5137107 0.24738699 -0.09033725
-0.47571194 0.21318467 0.14365257 -0.3203852 -0.1219378 0.17771308 0.18994732 0.045306172
0.3719761 -0.0075963666 0.091394514 0.3961501 -0.19253889 0.25037783 0.10747911 0.21460652
0.28617826 -0.51972526 0.5605948 -0.5831564 0.38712427 -0.33264866 -0.60352236 0.33763632
0.1423019 -0.63210434 -0.1316466 0.20312618 -0.09520278 0.17773594 -0.5809526 -0.23230487
0.32093844 0.49720573 -0.2163111 -0.5845496 -0.33132195 -0.0544012 -0.10043014 0.17699306
0.19577625 -0.23554343 -0.31029052 -0.055066735 -0.26165482 0.09108366 0.43695924 0.45412597
0.13427587 -0.67355996 -0.5591397 0.015650678 -0.19688085 -0.09982442 0.088181734 -0.20103353
-0.28693074 0.17254943 0.06825848 0.3405627 0.27429494 0.24270052 -0.10001479 0.039160162
-0.29672423 0.24340664 0.3800874 -0.037938017 0.3944385 0.0556976 -0.4442925 -0.16833703
-0.015770884 -0.18617569 0.106376946 0.14424117 0.6590298 -0.091661364 -0.7087151 -0.33437634
-0.46962866 0.47026 -0.13821058 -0.29384166 0.103295445 -0.017180204 -0.084560245 0.17146163

conv1.bias f4 [24]
00000000: 302a 46be 081b 933d 667f 36be a53e 203d
00000010: 3d2e f8bc 7b6c b5bd 39f9 d3bd 9ae3 2d3c
00000020: cb42 903d 4be2 52be 324a 48bd ed2e 51be
00000030: 57a6 233d 7f9a 9ebe 13ab 2abe b4e6 de3d
00000040: a6f2 4dbe 1bf2 0a3d 381f 0dbe e9d7 543d
00000050: d271 a3bd a714 823e d74a a0bc c28f 8bbe
-0.19352031 0.0718289 -0.17822036 0.039122242 -0.030295486 -0.08858582 -0.1035027 0.0106133465
0.0704399 -0.20594136 -0.048898883 -0.20428057 0.039953556 -0.30977246 -0.16666822 0.10883847
-0.20112094 0.033922296 -0.1378144 0.05196372 -0.07980694 0.2540638 -0.019566936 -0.27258116

conv2.weight f4 [36, 24, 5, 5]
00000000: 677c 623e d04c d83b a285 4b3c d05c 253e
00000010: bfdb e9bc 6110 b43d 25af b2bd 8b92 1cbd
00000020: 0e0c a0bd 02cd a73d 88d7 763c 83eb 86bd
00000030: a4d3 c33d 2f33 6dba 4483 2abd eadf 7f3d
00000040: 54b9 d5bd 7f59 913d 9efa 0ebe e558 a33d
00000050: 6106 e7bc 74dc e0bd 89bb 2a3d cc24 92bc
00000060: 7f12 253e 2e26 793d 6eab 36bd 612b ce3c
00000070: b3e9 c23d 71c9 30be e586 7abe 5190 4bbe
00000080: 7605 aabe 4466 603e 8c46 573d 81a0 b7bd
00000090: debb 46be d468 cb3d f299 fd3c 1f17 ddbd
000000a0: 9440 b33d 4d43 31be 6969 0abd 8a5a 8bbd
000000b0: 1ae9 acbc 6f04 05bd 68ab 333c 1566 ce3c
000000c0: ff1d ad3c 262d 4b3e 1a99 9fbd 1202 b5bc
000000d0: f849 0b3e e640 2bbc 9495 63bd e9e1 88bd
000000e0: 9f7f 69bc 75fb 833d 526c d93d 6dfa b9bd
000000f0: db06 1f3e 30ca b2bd 8539 023e 3ca2 86bc
00000100: c863 a5bc 1242 b63c 22f0 e83a 2101 d03b
00000110: a52f adbd e4b5 743e b594 a53d 4610 d2bd
00000120: c854 1fbc b2b3 afbc 0ab8 a73d 7b48 d3bd
00000130: afa8 32be fdc1 3cbe 42cf 27be c821 ae3b
00000140: ec7e 1d3b 65a5 66bd 9938 ccbb 32c6 843c
00000150: db6c 0fbe 3eeb e73b 734a f2bd 96d3 5e3c
00000160: 2ec2 15be bb14 223e 3c1d 62bd 8858 2b3d
00000170: 1357 49bd 59e6 00be 7f42 8d3d 6e13 18be
00000180: 938d b73c f36f 49bd d7e6 d8bd a3d6 c13d
00000190: f98e 2cbc 1bb8 c9bd 0819 183d 6b7c cf3d
000001a0: dfaa b7bd a067 01bd 455c 5d3d c981 953c
000001b0: 3dd8 70bd 8add dfbc 1dad 0d3d e875 e63c
000001c0: 2d6f 133d 9d5d 04bc e8a8 b43d a09d ccbd
000001d0: c8d5 f03c 1b15 9e3b 654d 0fbc 9e5c fc3d
000001e0: 0a0e e13c 3e74 09bc 62f4 273d c690 9dbc
000001f0: 9309 babd bfe2 67bd b80d 3bbd 22a8 30be
00000200: 18eb a8bb 491c 4cbe 1aba 8abe 081b bfbe
00000210: c7f8 79bd e2fc 80bc ea25 dabd 0dea 2c3d
00000220: e029 30bb 6ca6 cabd 12b8 3cbd 40bc 0ebe
00000230: 24d8 2a3e 4d8e 313d fd66 59be 1b3c b13d
00000240: 71f5 8bbd b96c 91bd 8d1f 7ebd dc23 753d
00000250: 6725 4b3d 4cfd d43d 1069 e7bd b7b3 283d
00000260: 3b4e cb3d 87ab 73bc c079 14be 8059 19be
00000270: 3887 a13d 89f5 21bd 97ec e4bd fa60 353d
00000280: 1f13 d73d 50a6 6e3d 5357 093e 0f74 cfbd
00000290: a3d4 91bd 8df5 3abd 397f 19bc 5a42 6abc
000002a0: 7fa1 87bd 8754 53bd d89a 92bd 8c61 5bbd
000002b0: 5bfc aa3d aab2 e33d b11e bf3d 6144 2b3e
000002c0: d8f8 d3bb a55a 60bd d0ee 90be d216 09be
000002d0: 6e55 713d 0b7d a53d 3736 3dbe 3bc0 aa3d
000002e0: 5092 d0bd 65a0 bb3d 4122 7ebd 5050 a6bd
000002f0: 5843 89be 33e6 ca3c 5bca e1bc 61c6 b4be
00000300: 08d2 0abd c95f 4d3d 8fd4 febd ff71 0bbe
00000310: ef15 d03c 49c3 d83d 7d60 f63c 3b4d 48be
00000320: 0fd7 1fbe 1c89 903c 908f 3abd 1027 46be
00000330: 19bb 733e 15db 563d f4b6 57be e82c 9f3d
00000340: 45cb fabd 1971 003d 7924 00bd 614f d5bd
00000350: 3007 263e a48f 063e b62b b63c e45b 8e3d
00000360: 84c9 3e3d 2a57 533e 9c04 bbbd ff89 263d
00000370: 80b0 423b 2095 f83b 7e93 bfbd 7b2e 533d
00000380: 33b7 1b3a ce19 3b3d 6030 de3d 6329 913d
00000390: 891e 003e 2e13 573c 73c3 103d 1a8a e83d
000003a0: 4aca 12be 8858 08be 6ca9 43bd 48a5 973d
000003b0: e689 e33d d60d 803d c2d4 683d 0c9b c3bd
000003c0: 00bc 0c3c 0cc8 4e3a dbaf 7bbc 5e97 88bb
000003d0: ff71 a73c 9c6f 953c ba32 d43b 9106 b2bd
000003e0: 846f 343e 3b94 bcbd aa41 11be 75c0 a43a
000003f0: d019 79bd 62cd abbe 93be a5bd 0c15 07be
0.22117768 0.0066009536 0.012421997 0.16148686 -0.028547166 0.087921865 -0.087248124 -0.03822569
-0.07814799 0.08193399 0.015066035 -0.06587889 0.095618516 -0.00090484595 -0.04162909 0.0624694
-0.10435739 0.07097148 -0.1396279 0.0797594 -0.028201284 -0.10979548 0.041682754 -0.017839812
0.16120337 0.060827427 -0.04459708 0.025167169 0.09517231 -0.17264344 -0.2446552 -0.19879271
-0.3320729 0.21914011 0.052557513 -0.089661606 -0.19407603 0.09932104 0.030957196 -0.107954256
0.08752552 -0.1731083 -0.033791933 -0.06804378 -0.021107245 -0.03247493 0.010966159 0.02519516
0.021132467 0.19841442 -0.07792874 -0.022095714 0.13602436 -0.010452485 -0.05556257 -0.06683714
-0.014251619 0.06444446 0.106163636 -0.09080968 0.15529959 -0.087299705 0.12717254 -0.016434781
-0.020189181 0.022248302 0.001777176 0.006347791 -0.08456353 0.23897511 0.08085004 -0.1025701
-0.009724803 -0.02144799 0.081893995 -0.10316559 -0.1744716 -0.18433376 -0.16387656 0.0053140856
0.002403195 -0.056310076 -0.006232333 0.016207788 -0.14006369 0.0070776036 -0.11830606 0.013600251
-0.14624855 0.1582822 -0.05520366 0.041832477 -0.049155306 -0.1258787 0.06897449 -0.14851162
0.022406375 -0.04917903 -0.10590904 0.09464767 -0.010532134 -0.098495685 0.037133247 0.10131153
-0.08968138 -0.031592965 0.054043073 0.018250363 -0.05879997 -0.027327318 0.03458892 0.028132394
0.035994697 -0.00807896 0.08821279 -0.09991002 0.029398814 0.0048242933 -0.00874648 0.12322353
0.027472515 -0.008389531 0.041004546 -0.019234072 -0.090838574 -0.056612726 -0.04566738 -0.17251638
-0.0051549785 -0.19932665 -0.2709511 -0.3732531 -0.06102827 -0.015745584 -0.10651763 0.042215396
-0.0026880428 -0.09895024 -0.04607398 -0.13938999 0.16684014 0.0433486 -0.21230693 0.08654042
-0.068339236 -0.07100815 -0.062041808 0.05984865 0.049596217 0.10399875 -0.11299336 0.041187014
0.09927031 -0.014872438 -0.14499569 -0.14975548 0.07887119 -0.0395408 -0.111779384 0.044281937
0.10501694 0.058264077 0.13412218 -0.10129558 -0.07120635 -0.04564433 -0.009368711 -0.014298046
-0.066226 -0.051594283 -0.0715844 -0.053559825 0.08348914 0.11118062 0.09332026 0.16725303
-0.0064688735 -0.054773945 -0.283072 -0.13387612 0.058919363 0.08080491 -0.18477713 0.08337446
-0.10184157 0.09161452 -0.062044386 -0.08120787 -0.26809192 0.02476797 -0.02756231 -0.353076
-0.033891708 0.050140176 -0.12442886 -0.13617705 0.025401084 0.10584123 0.030075306 -0.19560711
-0.15609382 0.017643504 -0.045547068 -0.19350839 0.23801841 0.052455027 -0.21065885 0.07772237
-0.12245802 0.03135786 -0.031284783 -0.10415531 0.1621368 0.13140732 0.02223764 0.069511205
0.0465789 0.20638719 -0.091317385 0.040658947 0.0029707253 0.0075861365 -0.09354304 0.051558
0.00059400796 0.045678906 0.108490705 0.07087972 0.12511648 0.013127131 0.035342645 0.11354466
-0.1433498 -0.13315022 -0.047768995 0.07404572 0.111102864 0.06252639 0.056843527 -0.09551057
0.008589745 0.00078880857 -0.015361751 -0.004168435 0.0204401 0.018241696 0.0064757736 -0.08692659
0.17620665 -0.0920796 -0.14185205 0.0012569564 -0.060815632 -0.33555132 -0.0809299 -0.13191622

conv2.bias f4 [36]
00000000: c580 06be b70b b5bd 0e19 e2bd 5c64 fd3d
00000010: b7ab c9bd bc3f 503d 97ef cb3c a124 653d
00000020: 2dd5 ac3d 038a c2bd fd3e 98be 366d 8fbe
00000030: 1e48 ffbc 51e2 bebd fd58 27bd 4af8 a9bd
00000040: 1fc1 3ebe 999c db3d 33bf e4bc ea92 11be
00000050: ed7e 1c3a 3965 63bc 8849 e9bb 4f83 adbd
00000060: e4ec 4dbe 95d5 c83c 36a1 11be fee2 2abc
00000070: b6d7 59be 1e5e fc3d 385d a2bd 8623 283e
00000080: 5efa 0fbe 35b4 603d e5f2 12bd 8df8 033d
-0.13135059 -0.08840125 -0.11039935 0.12372658 -0.09847205 0.05084203 0.024894519 0.055943135
0.084390976 -0.0949898 -0.29735556 -0.2801301 -0.031162318 -0.0932051 -0.04085635 -0.082993105
-0.18628357 0.10723228 -0.027923202 -0.142162 0.0005969841 -0.013879114 -0.0071193613 -0.08472311
-0.20109898 0.024515906 -0.14221653 -0.010430096 -0.21273693 0.12322639 -0.07927936 0.16419801
-0.14060351 0.05485936 -0.035876174 0.03221946

conv3.weight f4 [48, 36, 5, 5]
00000000: 1c30 d2bc 03ec 7b3a 8648 e73c 6d6d 253e
00000010: 1dd1 043d 201e 963d c48e 153e 63e6 c43d
00000020: 1f30 c53d bc8e a8bd 4a62 c5bd 8d0d 223d
00000030: e8af 58be 82ac e3bd 46bb b7bd fa2e 49bb
00000040: 40de 14bd a0ba 8abd c4c2 43bd f1ae 19bd
00000050: dc7f cb3d 4cd8 0b3d 3ba3 c8bd 8476 7fbd
00000060: d7f8 85bc fdb2 edbb 3f4a 66bc 9d29 a83c
00000070: c527 a03c f1a6 4abc bb28 0bbd fa3b a4bc
00000080: 198a ccbd 8d37 a6bd 95e3 f63d 9244 01bd
00000090: b48a 6a3d ce78 67b9 b271 2fbe d311 be3b
000000a0: ac11 7cbe f47a 8dbd a6c9 0b3d a92e e8bd
000000b0: e683 923d 97f6 9f3c e42b 803d b387 bb3d
000000c0: 10ed 9bbd fa7a 73b9 0234 623d a2d5 a43e
000000d0: 72e7 103e 3c22 443e 16ca 08be 2fcc 593e
000000e0: 0d4c 983d 587f 203e 501f 79bc 3e28 1f3e
000000f0: 0706 a63e 27df a93e 20b9 b43d 2812 d83d
00000100: 9894 823e 1068 493e 6549 a23e 16dc 733e
00000110: e33b 803e 2c10 753e 9f5a c7bd a3ff 37bd
00000120: f356 283d 0c7e 103e dcb9 6f3e f5eb 21be
00000130: 10e2 3ebe efc5 6dbc 6977 3dbd 3655 dbbc
00000140: 80c1 63bc da4d b3bd 7e14 073e a6ae 923d
00000150: 0bcc f3bd b80b 8d3d 302b 033e cb3d d7bc
00000160: 4a8d dbbc e6ed 023d dcba af3b e0f7 89bd
00000170: 36c5 dd3d 89e6 6bbd fafa b93c ffd2 423d
00000180: bf8f d3bd d271 133e a997 1dbd 4a1d b8bd
00000190: 950c 1d3e df67 873d 0933 18bd 7f15 adbd
000001a0: 073a 59be 2deb cc3c 2330 fcbc b756 533d
000001b0: 8fe1 04bd dd8c aabc d032 9fbd a9eb 84bd
000001c0: d479 1abe 930d a93d 2bd9 aa3d 5938 57bd
000001d0: 5c3f 7b3e 21ba 87bd f771 29bd db03 703d
000001e0: 5b20 803d b6e6 ed3c c3fc 363e b265 ec3c
000001f0: fd14 ba3d c930 6bbe 472b 44be 5b2e 05be
00000200: 644c 79bd e7ba d6bd b16c 6dbe 74d4 87bc
00000210: 85de 3bbe f351 72bd 3c41 9fbd ee35 0a3e
00000220: 69b9 7f3d a96f 2abe 0a13 7abe c079 9bbd
00000230: 6fce 2bbd db6c d63d 483b 053e 7d0b 96bd
00000240: daeb 6cbc 0daf e7bd f3d3 113d af1c eebc
00000250: 90ea cf3d feb3 2ebe cb4c 64bd c779 343d
00000260: 9204 7abd 4cbf 79bc d623 403e 38df bebd
00000270: d4da 15bc 550a 1cbb aacd 663d 1d9c df3d
00000280: 8ba8 3bbe bdf7 91bd 9230 db3d 513f e33d
00000290: 7963 00be e7e7 02be 072a 7d3d bd4d 2b3e
000002a0: 2ce5 3bbd a48d b3bd 9a55 6d3e 2da2 e03d
000002b0: 6f23 99bd c976 33be 0a8e bfbd 14fa 61bd
000002c0: 1bca b23d 2b98 acbc a942 08bd abaa 3a3c
000002d0: 4de9 84bd fe23 89bd eaed b53c 645d 0fbe
000002e0: 6e16 8ebd 3c7a 03bb 32de 76be 6b2a 823e
000002f0: b7ef 693e 5708 7e3e 676e 8fbd a201 773d
00000300: 03a3 b03d 44d2 adbc a78c 51bd a920 613e
00000310: ffb3 943e b7e4 9c3d e509 943d c7e7 6b3e
00000320: efed 453d 0230 0f3d 99ec d4bd a64c 183d
00000330: 73fb bfbc 0a6d 31be 60b5 babc c8c0 5dbd
00000340: d186 503d 133d 933d 0604 bd3d a617 c53a
00000350: 860a 67bc ae5b 17bd be26 f73c 639c 1dbd
00000360: bbef 0a3d 6801 0c3d d226 d53d 1855 97bd
00000370: cdc0 a43d f47f 7cbc 385d 143d fad2 67bc
00000380: e793 37bd 5e1b 1d3d c5f6 cd3b ded9 d4bc
00000390: 2a20 603d fc8a 883d 1e15 b53c a9f5 a3bc
000003a0: 68a8 41bd 4301 8cbd 33f3 b5bd a860 71bd
000003b0: eaa7 f73d 5ec2 bdbc ace4 a43d 39f3 0b3d
000003c0: d2f2 b23c 3cb0 f9bb fa38 7f3d d03e 423e
000003d0: aeea 903d 386a b1bd 3cc3 30bd 2573 8abd
000003e0: 3602 723c 751f 813d 6fe2 04bd 2dc6 62bb
000003f0: da7c 2ebc 0871 523d 94b7 593c ed8f 9b3c
-0.025657706 0.00096100586 0.028232824 0.16155024 0.03242599 0.07329965 0.14605242 0.09614255
0.09628319 -0.082303494 -0.09637888 0.039563704 -0.21160853 -0.11116888 -0.089712664 -0.0030698166
-0.036344767 -0.06773877 -0.047793165 -0.037520353 0.099364966 0.034141824 -0.09796759 -0.062368885
-0.016354008 -0.007254003 -0.014055788 0.020527655 0.019550214 -0.0123689035 -0.03397439 -0.02004813
-0.099872775 -0.08116064 0.120551266 -0.031559534 0.057261184 -0.0002207488 -0.17133215 0.0058004647
-0.24616116 -0.06908217 0.034127854 -0.11337025 0.07154064 0.019526763 0.062583715 0.09156742
-0.076135755 -0.00023220098 0.05522538 0.3219424 0.1415079 0.19153684 -0.1335834 0.21269296
0.074363805 0.15673578 -0.015205219 0.15542695 0.32426473 0.33178064 0.08824372 0.10550338
0.25503993 0.19668603 0.3169662 0.23814425 0.2504569 0.2393195 -0.097340815 -0.04492153
0.041098546 0.14110583 0.23410743 -0.15812667 -0.18640924 -0.014512523 -0.046256457 -0.02677403
-0.013901114 -0.087550834 0.13191411 0.07162218 -0.119041525 0.06887001 0.12809443 -0.026274582
-0.02680077 0.03196516 0.0053628515 -0.067367315 0.108286306 -0.057592902 0.022702683 0.047564503
-0.10330152 0.14398888 -0.038474713 -0.089899614 0.15336831 0.06611609 -0.037158046 -0.08451366
-0.21213542 0.025014484 -0.030784672 0.05159637 -0.032441672 -0.020819122 -0.077733636 -0.06490261
-0.15085536 0.08254542 0.08342203 -0.05254397 0.24535888 -0.06627298 -0.04136845 0.058597427
0.06256171 0.029040676 0.17869858 0.028857086 0.090860344 -0.22967829 -0.19157134 -0.13005964
-0.060863867 -0.104848675 -0.23185994 -0.016580798 -0.18346603 -0.059160184 -0.07776114 0.13497135
0.06243268 -0.16644157 -0.24421325 -0.07591581 -0.041944917 0.10469981 0.13010895 -0.0732641
-0.014460528 -0.11312685 0.03560252 -0.029066412 0.10152161 -0.17060849 -0.055737298 0.04406145
-0.061039515 -0.015243363 0.1876367 -0.09319919 -0.009146411 -0.002380987 0.05634848 0.10918448
-0.18326013 -0.071273305 0.107026234 0.11096061 -0.12537946 -0.12783776 0.06180766 0.16728874
-0.045872852 -0.0876725 0.23177186 0.109684326 -0.074774615 -0.17525782 -0.09353264 -0.055170134
0.08729955 -0.021068653 -0.033266697 0.0113932295 -0.06489811 -0.06696318 0.022208173 -0.1400047
-0.06937872 -0.002006187 -0.24108198 0.25422987 0.2284535 0.24807869 -0.070034795 0.06030429
0.08624842 -0.021218427 -0.051159527 0.21985115 0.29043576 0.076608114 0.0722845 0.23037635
0.048322614 0.034957893 -0.1039669 0.037182473 -0.02343533 -0.17326751 -0.022791564 -0.05413893
0.05090982 0.07189383 0.09229283 0.0015036955 -0.01410163 -0.036952667 0.03016984 -0.03847922
0.03392003 0.03418103 0.10407795 -0.07389277 0.08044586 -0.015411366 0.036221713 -0.014149422
-0.044818785 0.038356178 0.0062855207 -0.025982793 0.054718174 0.06667134 0.022104796 -0.0200146
-0.047279745 -0.06836178 -0.08884277 -0.05893007 0.12092574 -0.02316397 0.08051428 0.034167502
0.021844301 -0.0076198857 0.062310196 0.18969274 0.070760116 -0.08662838 -0.04315494 -0.06760243
0.014771035 0.06304828 -0.032442506 -0.0034602985 -0.010649884 0.051377326 0.013288397 0.018989528

conv3.bias f4 [48]
00000000: 018c 97bd 3e80 81be c6e6 c83d 3e4f a9bd
00000010: 6aaa f73d d450 edbc 3764 ebbc 2602 75be
00000020: a848 3a3e 2ba8 cdbd e036 d63d cf2f 2abe
00000030: 7a4f c03d 127e 3f3d 236b 16be 4e5e 0b3d
00000040: 2889 e33d d194 51bd 2f3d 47be 9b56 19be
00000050: 861d bc3d 3b1f d1bd 215b b6be 9629 31be
00000060: da8f 87be dcc7 ad3d ba11 1fbd 457f 333e
00000070: 8944 31bd cf5d 59be 3d42 d63d 3330 27bb
00000080: 4ef6 34be 1c8c e4bd 60ed 80bd d3d4 1dbd
00000090: 43a8 dfbc 02d3 4e3e aa6e 94be 0e0f b1be
000000a0: 2bb6 443d 9d36 60be 533e f23c e206 843d
000000b0: 22ee bbbc caa1 fbbd 7b28 04be be3a adbd
-0.073997505 -0.25293154 0.098096415 -0.082670674 0.12093051 -0.028969206 -0.02873431 -0.23926601
0.18191779 -0.10041841 0.10459685 -0.166198 0.09390159 0.04675109 -0.14689307 0.034025483
0.11110145 -0.051167313 -0.19456933 -0.14974444 0.09185319 -0.10211035 -0.356164 -0.1730102
-0.26476938 0.08485386 -0.038835265 0.17529018 -0.04327825 -0.21227191 0.10461853 -0.0025510907
-0.17672083 -0.11159536 -0.06295276 -0.038533043 -0.027301913 0.2019768 -0.2899068 -0.34581798
0.04802529 -0.21895833 0.029570734 0.06446625 -0.022940699 -0.12286718 -0.12906067 -0.0845847

conv4.weight f4 [64, 48, 3, 3]
00000000: 2d0a 403d aaa3 77bd 19cd de3c ca65 3e3e
00000010: 3028 b03c c65b 96bd 9558 8b3d ddae 8dbd
00000020: 6efd bebe 9581 363c 3eba 4a3c 3f0e c73d
00000030: 9823 0c3d e2bc 85bc f6d3 42bd c070 c93c
00000040: eec5 1ebe 95b8 bbbd 387c 823e 41b5 743c
00000050: 2577 96bc a652 043d 4991 1e3e 6454 97bd
00000060: c812 20be 7839 30bd 7ac8 eb3d 8b09 0bbe
00000070: feb3 d23c ee85 b03d b2d4 ccbd 4c79 26bd
00000080: 7477 afbd 4f5d 36be 88b0 10be 38be 00be
00000090: 269f b7bd d25e 19bd 1fb6 0cbe 52b7 59bd
000000a0: c9db 3bbe 032c ad3d 6d52 63be 0db7 31be
000000b0: 634a bcbc a1cc 283e e1fa 15bd 4bf7 ff3d
000000c0: 9a8f e13d 8030 3fbd da7e 573d 674c 9f3d
000000d0: 0498 4abe b025 b7be dc5f 083e 9219 783c
000000e0: 1d8c bbbc 0d02 ac3c 30b5 d0bc 508c 92bd
000000f0: 5689 4d3e 95f9 aebd 7011 7cbd c360 153e
00000100: 5805 923d 34a0 293b e37a b73d a475 afbb
00000110: 2067 ffbb 2d50 4cbd 476d f33b 527b 223b
00000120: f5a7 573e 76f0 5e3e 0982 5a3e 9c05 8d3d
00000130: 5519 893e 98bc 273e a724 e83e e383 8a3e
00000140: 05ea c53e c39f 723b 5929 543d 004d 92bd
00000150: 7f02 f63d 3456 933d ee11 02be 9e00 7ebd
00000160: 0df7 23bd 290e 44be 9877 7e3e 90e6 903d
00000170: 42d5 fd3b 4339 973d 8a0e 733d 8043 93bb
00000180: 39aa 6d3d a8d3 663c 5f84 d1bd 4057 c33d
00000190: c343 27bd a096 3ebc 93ab 3c3d 4a00 c4bd
000001a0: 6d97 b5bd 700a c9bb 9d07 f83d c1c5 ea3d
000001b0: 1dd0 6b3d 1d4c 08be 5643 8ebd 1e50 f93c
000001c0: 4b8c 653c fb7b 97bd ef2f 323e 82c6 123d
000001d0: f984 1dbd 7761 bcbb 7482 abbc ebfa 31be
000001e0: d1e3 dd3c 046a 803e 1257 cabd eeac 4e3c
000001f0: 385c 003e e136 733d 8216 9fbc 8974 06bd
00000200: a701 51bd 650b a2bd ecb8 33bd cc5e ea3c
00000210: dc64 2ebe 81ab 4b3c ec3e 923d 83b0 1bbd
00000220: 5142 123d 45a0 f9bd 5517 843b 776b 633c
00000230: fa2c 65be 45f4 a83d 0450 dcbd b375 153e
00000240: 16b5 01bd 0e4a 9e3d 5370 02be 0605 42bc
00000250: 890c 1f3e 1fb2 4fbc e79e 41bd d0a2 88be
00000260: 4875 db3b 4264 623d b2dc 383d d1d1 93bd
00000270: 05d9 6abb ca17 af3d 2450 b4bc b8ce 9c3d
00000280: 33ac a7bd 6f5e 0abe 2cb1 be3d 7369 9fbd
00000290: e84c 7dbc 8c7d fe3d ba21 11be b9c4 53be
000002a0: 38d5 873d 9ed9 76bd 5f52 61bd 16b9 163c
000002b0: 48f7 193d b9ca 5fbd e647 40ba 63c6 23be
000002c0: cb9c c2be 2316 5dbe 5696 89bd ecdc c3bd
000002d0: df49 c6bd 667d 95bd 6ff4 11be fd62 8f3d
000002e0: a80c 3ebe b52c 8dbe 20d7 70bd 1ddb 18be
000002f0: 9845 a63b 512b 353d 9ca8 073d eed0 7e3d
00000300: fe63 273e 4a29 ad3a 1a4a 31be 4b54 573d
00000310: 7b5c 563d 6562 873d 3d60 103e 9d37 9ebd
00000320: ef37 b43d 758f cd3d f45c 8fbd df45 7dbe
00000330: 549f 69bd 8518 babd 87f3 f5bd ebeb b73d
00000340: 2f30 bb3b 0319 8cbd 2615 c3bc da6f 403b
00000350: 024c a0be 7ed2 a7bd 9696 063c 2661 02bd
00000360: 2462 b03d 6486 513e 2776 153d 6818 893d
00000370: 9ad7 5ebc e116 13be e7e9 b73b 0967 66be
00000380: 51df d2bd ca48 a2bd 56cb 43bd 1bad 6638
00000390: 079e 063e 08fa 8cbb dd68 963d d96f 183e
000003a0: 9267 1e3e 091b 393e b3ff 893d 0496 993d
000003b0: 97e9 ac3d 1992 853e 5e03 973d 1aa8 9f3b
000003c0: b37e 8e3e 8dca 283c dd95 57be 6bc5 acbe
000003d0: c5ed f1bd 321a 1dbe 00c9 c2bd 5153 493e
000003e0: 42d7 6bbd 9721 2ebe 5a1e 8abe 64c0 1a3e
000003f0: ebb9 8e3c 384d aa3d b95f 293e 8ced 503d
0.046884704 -0.060458817 0.027197408 0.18593517 0.021503538 -0.07341723 0.06804005 -0.06918118
-0.37302727 0.011139293 0.012373505 0.09719514 0.034213632 -0.016325418 -0.047565423 0.024589896
-0.15505192 -0.091660656 0.25485396 0.014935792 -0.01836736 0.032305382 0.1548511 -0.07389143
-0.15632164 -0.043023556 0.11512847 -0.13577859 0.025720593 0.08619295 -0.10001506 -0.04064302
-0.08567706 -0.17809032 -0.14129841 -0.12572563 -0.08965902 -0.037443943 -0.13741349 -0.053153343
-0.1834556 0.0845566 -0.22199412 -0.17354985 -0.02298469 0.1648431 -0.03661621 0.12498339
0.11013718 -0.046677113 0.05261121 0.077782445 -0.19784552 -0.3577094 0.13317817 0.015142815
-0.02289396 0.020997072 -0.025477022 -0.07155669 0.20071921 -0.08543698 -0.061540067 0.14587693
0.071299255 0.0025882842 0.08958986 -0.0053546 -0.007794276 -0.04988115 0.0074287984 0.0024792743
0.21060164 0.21771416 0.21338667 0.068858355 0.2677714 0.16380537 0.45340464 0.27053747
0.38655105 0.0037021495 0.051797245 -0.07143593 0.12012195 0.07194176 -0.12702152 -0.062012307
-0.040030528 -0.19146027 0.24850309 0.07075226 0.0077463696 0.07383969 0.059340037 -0.0044941306
0.058023665 0.014088549 -0.10230326 0.09538126 -0.040836107 -0.0116325915 0.046062063 -0.09570368
-0.08866773 -0.0061352775 0.12110827 0.114635 0.05757152 -0.13310285 -0.06946437 0.03043371
0.014010499 -0.07396694 0.17401098 0.035833843 -0.03845689 -0.0057489234 -0.020936228 -0.17380874
0.02708617 0.25080884 -0.098798886 0.012614472 0.12535179 0.05937851 -0.019419912 -0.03282598
-0.051026966 -0.079123296 -0.043877527 0.028609656 -0.17030662 0.012431026 0.07140908 -0.03801013
0.035707776 -0.12188772 0.0040311017 0.013880602 -0.22380438 0.08249716 -0.10757449 0.1459568
-0.031666838 0.077289686 -0.12738161 -0.011842018 0.15532126 -0.012676745 -0.04727068 -0.26686716
0.0066973306 0.055271395 0.045132346 -0.07217754 -0.003583492 0.08549459 -0.02201087 0.07656616
-0.08187141 -0.13512586 0.093111366 -0.07783785 -0.01546023 0.1242629 -0.14173022 -0.20680512
0.06632465 -0.06026613 -0.055010196 0.009199401 0.03758934 -0.05463669 -0.00073349325 -0.15993647
-0.3801025 -0.21590476 -0.067181274 -0.09563622 -0.096820585 -0.072993085 -0.142534 0.070013024
-0.18559515 -0.2757317 -0.05879891 -0.14927335 0.005074214 0.044230763 0.033119783 0.06221097
0.16346738 0.0013211158 -0.17313424 0.052570622 0.05233429 0.06610564 0.14099212 -0.07725451
0.08799731 0.10037128 -0.07000151 -0.24733685 -0.057036713 -0.09086708 -0.1200934 0.08980545
0.005712531 -0.06840708 -0.023813795 0.0029363544 -0.3130799 -0.08194445 0.008214613 -0.03183093
0.08612469 0.20461422 0.036489632 0.06694108 -0.013601208 -0.14364196 0.0056126 -0.22500242
-0.102965005 -0.0792404 -0.047801338 5.499749e-05 0.1314622 -0.004302267 0.0734422 0.14886416
0.15469196 0.1807672 0.06738224 0.07499316 0.08442991 0.26088026 0.07373689 0.004872334
0.2783104 0.010302198 -0.21053262 -0.33744368 -0.11812929 -0.15342024 -0.09510994 0.19660689
-0.057578333 -0.17005001 -0.2697628 0.15112454 0.017422637 0.083155096 0.16540422 0.051007792

conv4.bias f4 [64]
00000000: 0dfe c03d e1c9 9f3d d2c0 64bd 12c4 e9bd
00000010: 11be 83bd 655b 3fbd 8e0d f03c 2f5e d6bd
00000020: e6ce 17be 2775 2d3d 835d 37be 8e31 21be
00000030: 6671 13bd 876d 29be fada 71bd bd9b 73be
00000040: 9b7b 8bbd f423 7d3d 0701 ccbc af70 273e
00000050: bffe 16be 986c d43d 3b9f 9ebd d9af 2f3e
00000060: aa5b 873d 2fc8 32bd 3681 f3bd 18aa ccbd
00000070: 84f4 ecbd f9f0 41bc 7ebe a83d 299d dabd
00000080: 9bba 0dbe 825c 953c 74fb 9fbb 34d5 3abe
00000090: e4fe 7b3e 3edb 263e 4578 8f3d 2f72 c53d
000000a0: 2b07 c6bd c69a 953d c8a6 013e de20 883c
000000b0: 96cf 4d3d 578d c5bb 981f 3a3e d335 cfbb
000000c0: 7893 85bc 8fe5 a0bd 0674 e6bc f681 c43d
000000d0: 74a8 dd3d 4ce1 aebd ce3f 4a3e 75f7 973d
000000e0: fa5b 833c 7e52 afbd d611 5fbd 33f1 9a3d
000000f0: b83b 893c e1e9 98bd e72c 743e 64b0 23be
0.09423456 0.07802177 -0.05584795 -0.114143506 -0.06432737 -0.04671802 0.029303338 -0.10467183
-0.14825019 0.042348053 -0.17906766 -0.1574156 -0.035996817 -0.16545688 -0.059046723 -0.23789878
-0.06810685 0.061801866 -0.024902834 0.16351579 -0.14745615 0.10372275 -0.077452146 0.17156924
0.066092804 -0.04364794 -0.118898794 -0.0999338 -0.11570075 -0.0118372375 0.082394585 -0.10674507
-0.13840716 0.018232588 -0.0048822705 -0.18245393 0.24608952 0.16294572 0.070053615 0.096409194
-0.09669336 0.07304911 0.12661278 0.016617235 0.050246798 -0.006028812 0.18176115 -0.006323555
-0.01630567 -0.07856285 -0.028131496 0.095951006 0.108231455 -0.08539066 0.19750902 0.074202456
0.016035069 -0.08560656 -0.05446037 0.07565536 0.016752109 -0.07466484 0.23845254 -0.15985256

fc1.weight f4 [100, 960]
00000000: 8876 f0bd 70ef 16bb 994b 853b 9748 083c
00000010: e8ee 723c 1913 e43d 28f2 ac3d f305 4c3c
00000020: f48d 83bc faa4 a6bc 7e74 01bd 6422 4f3d
00000030: 93e1 c2bd 86c6 49bd 094c 68bd 20c7 d73d
00000040: 8619 863d 7019 423d e2ec 4ebd c85b 1abc
00000050: 9af0 b9bd dd4f bdbd 2712 bcbc 9136 a4bd
00000060: 5db1 56bd 6976 74bd 9d54 debd 58a6 ff3c
00000070: 2d8e 9bbd a33d a3bc 3a3b 6b3d ea29 6cbd
00000080: b6b0 b5bd de1e 98bd 8ecf 6bbd 8b9c 683a
00000090: 9190 f8bc bc70 d4bc b968 3abd c10c 303d
000000a0: d7a0 af3a b491 5d3d 689a 86bd 732b 3abc
000000b0: 8c8d 9bbb f807 683d d03c 3b3d 55a2 7e3c
000000c0: 314a e83d da99 553d 647f 163d 99ec 38bd
000000d0: a828 13bd b60a 81bd ea50 07bd 60bd 5abc
000000e0: 0f6b 94bd 4f52 d33d 2b39 52bd c558 66bd
000000f0: a633 1fbe b8ed f6bd a585 2dbd ef74 ebbd
00000100: 0039 9b3d fbf7 22be 4e8d 7d3d a0c6 a4bd
00000110: cd01 c7bd 8fb6 50bc 2fbd db3c 2d45 853c
00000120: 2def 67bc 024e 453c 07ea 863d b4af 273e
00000130: 3cea 153e 08b6 31bc c4bd efbc 6e71 14be
00000140: 0c39 d53d 3164 a83d 257f 21bc 11bd 023d
00000150: 168f 7b3d f8a0 353d 9149 ec3d 9c51 043e
00000160: b821 e83d 12e6 3c3d 4d65 383d d2ff d5bd
00000170: 5b28 883c 860e c33b a679 d13d e7dc ec3c
00000180: 5228 9d3d 93e7 d33d fddb 233c 6c6d c03d
00000190: d541 50bd ab19 1e3d 6500 a0bd 7ff8 1bbd
000001a0: 735b 98bd 3f98 ad3d d21b 333d 890b 263d
000001b0: c5b9 743d d8ec e1bd 8516 e4ba 1cf5 83bd
000001c0: 1ca4 f93d d196 9fbc 8cd5 6f3c 4a85 91bd
000001d0: 3a30 b7bd a6ac 24bc 8636 2dbd 07e5 f6bc
000001e0: 333d 643c 41cb c6bd 1e63 8e3d aedf 17bd
000001f0: 4129 86bd 550c 9ebd 0117 e73c a96d fabc
00000200: 2b14 5cbd 4b40 93bd 01b4 63bc c8b1 323c
00000210: 1fcc 49bd 18d2 00bd c37c 813d 7ebe d4bc
00000220: ab5b a2bd f452 1fbe 4231 03be a462 02bc
00000230: 563f b53d 4b8b 173d 49e4 883d cdd5 3638
00000240: c040 633c e5dd 6ebd 676f a2bc 6c5c 63bd
00000250: 42fb 82bd 10fd ca3d 3d2a 143d 9e52 033d
00000260: e180 d33c 9567 79bb e8b3 63bd cd26 60bd
00000270: 152c 98bd 1a41 323d 7199 71bd 89a4 e63c
00000280: e610 493d 9ce2 883c 35db cf3d 827e d93c
00000290: b422 013d fb5c c4bb 86cd 6d3c 295e 88bd
000002a0: f045 95bc e8f5 273a 318e 893d d3c2 13bd
000002b0: 14c6 4d3d 36c8 103d 85a7 bfbc 9b90 0b3c
000002c0: 5959 c13d 4904 5e3d bf05 e93b bfde a53d
000002d0: ed6f 343d 51c0 c6bd 842b 883d 3eb9 463e
000002e0: ac4f db3d cdd4 d43d 1cd1 293d 9a68 063d
000002f0: a48f 8e3c 26e4 c73d 10e7 5d3d fdae d73d
00000300: 9924 633d cda1 a9bc 49b1 d03c 52cc 263d
00000310: 41f5 80bd 9bcf 003d 8f48 35bd e64e 8b3c
00000320: ccf5 26bd 3f10 5ebd ac70 3a3c f381 febc
00000330: 7b05 8b3b 5ddb 3bbd 5937 9e3a 428d 16bc
00000340: bf84 24bd 45c2 48bd 48c3 783b 0d6b 173e
00000350: 9402 b7bc 0e7a c1bd c744 983c b585 22bd
00000360: be82 60bd 7052 83bc ce36 ed3d 8475 c53d
00000370: e822 aa3d bc96 43bd 9123 253e 767b d03c
00000380: 7a62 1d3d 9dff fdbd f93c bcbc d815 b9bc
00000390: 648f 1a3e 9968 78bd 8390 ebbc 3516 18ba
000003a0: 7ee6 243e 213e 78ba 4b30 93bd 7563 a2bc
000003b0: b94e 11bd b631 8dbd 0e10 bd3c fc56 2bbc
000003c0: a0a8 1e3c c352 533c b37f 8f3c 4f4c 16bc
000003d0: 92fc 25be aa4d 5fbd 0639 43be 24e8 7abd
000003e0: 2304 08bd ae6a d1bd 2868 ebbd 185b 2d3d
000003f0: 7267 84bc 3c3c 65bb 0563 ad3d e57e c13d
-0.11741358 -0.00230309 0.00406785 0.008318088 0.0148274675 0.11136455 0.08444625 0.01245259
-0.0160589 -0.020342339 -0.031605236 0.050569907 -0.09515681 -0.049261592 -0.056713138 0.10536027
0.06547837 0.04738754 -0.050518878 -0.009421296 -0.09079094 -0.09243748 -0.022957874 -0.0801822
-0.05241524 -0.059683237 -0.108559825 0.031207249 -0.07595477 -0.019926852 0.05742953 -0.05765716
-0.088715956 -0.074277624 -0.057570986 0.00088734244 -0.030342372 -0.025932662 -0.045510028 0.042980913
0.0013399374 0.05409403 -0.065724194 -0.011362898 -0.0047470983 0.056648225 0.045712292 0.015541633
0.11342276 0.052148677 0.036742583 -0.045147512 -0.035927445 -0.06300871 -0.03303615 -0.013350815
-0.07246982 0.103184335 -0.05132405 -0.056237 -0.15547046 -0.1205706 -0.04236378 -0.11496913
0.07579231 -0.1591491 0.061902337 -0.08045697 -0.0971714 -0.012738838 0.026823608 0.016268337
-0.014156145 0.012042524 0.06587606 0.16375619 0.14640135 -0.010846622 -0.029265292 -0.14496395
0.104112715 0.08222235 -0.009856974 0.03191859 0.061415754 0.044342965 0.11537469 0.12921757
0.11334556 0.04611785 0.045018483 -0.104491845 0.016620805 0.005952659 0.10228281 0.028913928
0.07673706 0.10346904 0.01000118 0.093958706 -0.050844032 0.038598698 -0.07812575 -0.03807878
-0.074393176 0.08476304 0.043727703 0.040538345 0.059747476 -0.110315025 -0.0017401731 -0.06443235
0.121895045 -0.019481095 0.014638316 -0.07105501 -0.08944745 -0.010050928 -0.042288326 -0.030138506
0.013930607 -0.09706736 0.06952499 -0.037078552 -0.06550837 -0.07717196 0.028209211 -0.030569868
-0.05373017 -0.07189997 -0.013897897 0.010906644 -0.04926693 -0.03145036 0.063226245 -0.02596974
-0.079276405 -0.15558988 -0.12811759 -0.007958088 0.08849971 0.036998075 0.06684167 4.35913e-05
0.013870418 -0.058317084 -0.019828511 -0.055508062 -0.0639558 0.09911549 0.036173094 0.03206121
0.02581829 -0.0038056124 -0.055591494 -0.054724503 -0.07430283 0.043519117 -0.058984224 0.028154628
0.04908838 0.016709618 0.10149232 0.026549581 0.031527236 -0.0059925294 0.014514333 -0.066585846
-0.018221825 0.00064071873 0.06716574 -0.03607447 0.05023773 0.035347186 -0.02339531 0.008518363
0.0944087 0.054203305 0.0071112807 0.08099126 0.044052053 -0.0970465 0.06648925 0.19406602
0.107085556 0.10392151 0.041459188 0.0328146 0.017402478 0.09760313 0.054175436 0.10531423
0.055454824 -0.020707035 0.025475161 0.0407222 -0.062967785 0.031447988 -0.04425865 0.017005395
-0.040761754 -0.054214712 0.011379402 -0.031067824 0.0042425967 -0.045863498 0.0012070938 -0.009188952
-0.04016566 -0.049013395 0.0037958194 0.1478693 -0.022340097 -0.09447108 0.018587483 -0.039678294
-0.054812185 -0.01603052 0.11582719 0.09641555 0.08307439 -0.047751173 0.16126849 0.025449496
0.038423993 -0.1240227 -0.022978293 -0.022593424 0.15093762 -0.060646627 -0.028755432 -0.0005801649
0.16103551 -0.0009469707 -0.071869455 -0.019822815 -0.035475466 -0.06894247 0.023078945 -0.01045775
0.009683758 0.01289815 0.017516946 -0.009173467 -0.16209629 -0.054517426 -0.19064721 -0.061256543
-0.03320707 -0.10225426 -0.114944756 0.042323202 -0.016162608 -0.003497853 0.08466152 0.09448031

fc1.bias f4 [100]
00000000: 0fa8 aa3c d1ed 04bd dbe9 02bd 0cf5 aebd
00000010: 0633 79bc 745f 1b3b c12c a53d cdee 8bbc
00000020: fdef d4bc ad97 833d 4385 0d3d 5100 a4bb
00000030: 24b6 c23c d0ba ca3c 7920 40bc ac8b 7b3d
00000040: 0869 aebc 5582 bfbc 7b0b 513c bb23 8d3d
00000050: baf0 1e3d 8080 77ba 36b0 0d3b 8f6e b7bb
00000060: a9ac f1bb 6f32 9dbc 5cc8 293c 6dac e9bc
00000070: 5e8b f2bc f119 a9bd 42cc a4bc 3284 86bd
00000080: 8c09 553d 9f5b 653d 5784 9b3c b70c 153b
00000090: 0044 8c3c 9984 5a3c d550 9d3d 2f79 50bd
000000a0: cdbd 18bc b7d1 3abd 7e14 c23d 7ed8 6f3b
000000b0: a18e 42bd c850 193d a4a1 0d3d 098e 3d3c
000000c0: b6d6 bdbd 1718 593c 948d 81bd e80b c03c
000000d0: dc5e 35bd 2a8c 353d 2030 85bc b9d0 cd3d
000000e0: ddbb aa3a 0bef 0cbd 5175 78bd ef61 173d
000000f0: c554 65bb 91b8 cf3c d641 813d 600e d33b
00000100: cbdd 3c3a f438 4b3d 3949 d03a df88 73bd
00000110: 85e9 c1bb 5fd1 9bbd 7212 083d cf4b fd3b
00000120: a4c9 c03c 709d 3cbd 7bf5 eebb 0591 d93d
00000130: 5fb6 cbbc 8d62 da3c 75a5 593d b6c1 1b3d
00000140: 7f6a 06ba 4506 72bc eaec 1abd 0326 13bd
00000150: 83e2 443d 40a8 44bd 89c8 0e3c a98d 25bd
00000160: 4879 29bb abcc 323c 7ed9 ddbc 3cb1 c9bd
00000170: 70b9 d23c 3431 353c 7635 8d3b f11c 2f3d
00000180: e597 27bc 523d 82bd f8cd 26bd 38c7 003c
0.02083209 -0.032453362 -0.031961303 -0.08542833 -0.015209919 0.0023708018 0.08065177 -0.017081643
-0.025993342 0.06425414 0.034550916 -0.0050049205 0.023768492 0.024747282 -0.011726492 0.0614125
-0.021290317 -0.023377577 0.012759085 0.06891581 0.038803793 -0.000944145 0.0021619922 -0.0055978964
-0.007375319 -0.019189088 0.010362711 -0.028524602 -0.029607471 -0.08256901 -0.020116929 -0.06568183
0.052011058 0.05599558 0.018984003 0.0022743174 0.017122269 0.013337278 0.07681433 -0.05089682
-0.009322596 -0.045610156 0.09476565 0.0036597545 -0.047499303 0.037430555 0.03457798 0.011569508
-0.092694685 0.013250372 -0.06325832 0.023443177 -0.044279918 0.044323124 -0.0162583 0.10049576
0.0013025958 -0.034407657 -0.060658757 0.03695863 -0.0034993154 0.025356563 0.06311385 0.0064409226
0.00072046806 0.04961486 0.0015890963 -0.059456702 -0.0059177303 -0.07608294 0.033220716 0.0077299844
0.02353365 -0.04604858 -0.007292447 0.106233634 -0.024867235 0.02665832 0.053136308 0.038026534
-0.00051275635 -0.014772003 -0.037823595 -0.035924923 0.04806758 -0.04801202 0.0087148035 -0.0404183
-0.0025859643 0.010913054 -0.027081247 -0.09848258 0.02572319 0.011059094 0.0043093516 0.04275221
-0.010229086 -0.06359352 -0.04072377 0.007859997

fc2.weight f4 [50, 100]
00000000: 6839 dbbd 3a3b a0bc 53aa 0fbd 4a4d 0e3b
00000010: b70e 593d c7e3 463d 0250 893d a8f5 69bc
00000020: d2e8 323d c532 ef3d 83b8 8fbd f49f 383d
00000030: 0e28 5bbc 7653 02be f624 f6bd 6a8b 4cbd
00000040: 750f f0bd 22c8 7b3d d6ff a7bc f245 74bc
00000050: 4743 ce3d de76 9f3d b309 9b3d 9447 0abd
00000060: c015 17be c400 02be ee1f 87bb 6c32 ad3d
00000070: 8ad9 a1bd 7149 63bd 01cb 9bbd defc cfbd
00000080: b47e e33d 3d97 843c 21d0 d5bd 886f 483c
00000090: 1033 b2bc 5d35 923d 35ac a33d 37de c0bd
000000a0: 613f 10be 1996 9c3d fc71 883d badb 53be
000000b0: 338e 2c3d b9e8 873d afb4 e93d 6a1e 003d
000000c0: 4e27 50bd 0de1 cebb c924 68bc 6606 0d3b
000000d0: c358 edbc 4c11 0b3d e3fe 863c 2c31 a13d
000000e0: ca6e 173d 5962 913d c779 f5bd aabc 7cbd
000000f0: d1a5 0dbd 0b57 0ebd a624 923d 1c06 06bd
00000100: 9503 893d 2db4 733d 7f3f b43d 2198 043e
00000110: 580d 2b3d 0e63 27be 9d74 273d 8714 fc3d
00000120: eaeb 36bd d436 aabe f17e dabd 2c48 583e
00000130: 73d6 eebd bc32 4cbd 4fc8 1bbb 5e30 8c3c
00000140: 1cb8 35bd dfe8 cd3c 92f8 01bc 79c1 74bd
00000150: 2371 1d3e 121a c5bb 3f6f 53bb 121c 57bc
00000160: 8793 5e3c 9157 0e3e d1e6 46bc 6f50 bfbc
00000170: b1e5 f13c 8341 a8bd 4098 bfbd cf7f 1c3d
00000180: f4d0 723d 3134 20be 4f52 703d b2d3 c0bd
00000190: 00e2 44bd 95fd 773d 480f 733d 291d c03d
000001a0: 01d4 953d fd01 e53c acb3 93bd eded b5bd
000001b0: 5d6c 273b 77aa 983d c063 b23d fe4d a73c
000001c0: a4a1 72bd 1ecc 293c 8ad9 9fbc 7f70 ccbd
000001d0: 931c f7bd bbc7 a9bd 08b5 e13d bc2b bd3c
000001e0: 5e9c afbd 4360 093c cd1b ca3b 87d0 323c
000001f0: 4241 30bd 9841 e5bd bc82 143d 31fb 763d
00000200: 5077 64bd fbb7 2d3d 8f71 593c a64f a3bd
00000210: d105 1cbd b9a2 693d 9664 e9bd 38af bdbd
00000220: 7efa 353b f993 e8bb c8e4 bebd fdd6 a8bd
00000230: e740 2d3d 6352 dd3d 4ad0 a03c 9036 d9bc
00000240: 47e8 193d 837b ea3c c0d5 3e3b b43b 57bd
00000250: 6558 fbbc 1608 ea3c 3d8f 89bd 3ece 923c
00000260: 5cdd 73bd 3cdf d93d edc6 e6bd f63e 053d
00000270: 94d4 87bc 8e4b 31be 64bf ae39 1928 ffbd
00000280: cd97 5b3d fda1 01be 3823 20be 6e07 8cbd
00000290: 9872 70bd a13a e13d 53b8 463d dc78 c33d
000002a0: 97f2 dc3b 61f3 ba3d e28e 7cbd 23b0 ce3c
000002b0: 6fdb 17bd d5c4 96bd 4507 0e3d add3 a13c
000002c0: 92eb f33d eba4 7ebd 0084 d13d b32f eebb
000002d0: 5217 fe3b 0c13 cf3c feaf 8fbd 6df9 053d
000002e0: fb78 1ebe 38b1 b13c 9748 fcbd fadc 90bd
000002f0: 2e8d 283e 1644 ca3c 3a90 85bd 57da e13b
00000300: 50dd 003d 5c0e 8e3c 68f7 a33d 78ab 44be
00000310: cca5 583e 3997 873d 7621 86bc 9a7f 9cbd
00000320: f120 493c 58a4 1e3c 6f61 9f3b 9d39 92bd
00000330: 2bdd 323b 9f5f 543b 9707 8d3c a067 f33b
00000340: 7e4b 47bc 968a 323b edb8 94bd 220b 123d
00000350: 69fd bcbc 74cb 133c 5e73 1fbc f9d0 2bbd
00000360: b4e5 aeb9 9832 ddbc 5c41 d43c a05e 1e3d
00000370: 0e58 3f3b 141a f33d 690a 2abc 41a2 91bc
00000380: 16bc 2abd eb5a 6cba 2666 11bd 9f6d 3ebd
00000390: 67c2 a3bb cc3c 2e3d f4c1 393d 3a14 9dbc
000003a0: 9464 963d 964d ca3c 8404 af3c c8f5 873c
000003b0: b540 8e3c 30e5 69bd 6c05 98bc 6bdc 9fbd
000003c0: 01a2 4d3d 372e 043d 785f fbbc a2b5 1c3e
000003d0: 6f14 4a3c 4b38 08be 6bd8 683d 1db3 96bc
000003e0: a470 223d 7f3e b73c 7ccb b3bd c0d8 8abd
000003f0: aef9 293d 0f9d 1bbd e3f3 0bbd 03bd 63bd
-0.10704309 -0.019559491 -0.035074543 0.0021713548 0.05299255 0.04855707 0.067047134 -0.01427976
0.043679066 0.116796054 -0.07017615 0.04507442 -0.013376249 -0.1272715 -0.120187685 -0.049937643
-0.11721698 0.06147016 -0.020507734 -0.014909254 0.10071426 0.07786344 0.07570209 -0.03375967
-0.1475439 -0.12695605 -0.0041236794 0.08456883 -0.079028204 -0.05548996 -0.07607079 -0.101556525
0.11108151 0.016185397 -0.10440088 0.012233622 -0.021752864 0.071390845 0.0799183 -0.09417384
-0.14086677 0.07645816 0.06662366 -0.20689288 0.0421278 0.06636185 0.11411416 0.031279005
-0.050818734 -0.0063134492 -0.0141689265 0.0021518706 -0.028972989 0.033952042 0.016478961 0.07870707
0.03697089 0.070988365 -0.11986118 -0.06170336 -0.034581963 -0.03475098 0.071358964 -0.03272067
0.06690136 0.059498 0.088011734 0.12948658 0.041760772 -0.1634638 0.040882695 0.12308603
-0.04465858 -0.33244956 -0.106687434 0.21121281 -0.11661997 -0.04985307 -0.0023770516 0.017112907
-0.044365034 0.025135456 -0.007932799 -0.059754822 0.1537519 -0.0060150707 -0.0032262353 -0.013129251
0.013584978 0.13900591 -0.012139992 -0.023353783 0.02952847 -0.0821562 -0.09355211 0.038207825
0.059281304 -0.1564491 0.058672246 -0.09415378 -0.048067093 0.06054457 0.059340745 0.09380562
0.07315827 0.02795505 -0.07212004 -0.08883271 0.0025546767 0.074543886 0.08710432 0.020422932
-0.059236184 0.010363607 -0.01951291 -0.099823944 -0.12065997 -0.08290049 0.11020857 0.023092143
-0.085747465 0.008384767 0.006167865 0.010913975 -0.043030985 -0.11194152 0.03625749 0.06029815
-0.055777848 0.042411786 0.013271703 -0.07974176 -0.038091484 0.05703995 -0.11396138 -0.09261936
0.0027767713 -0.007097718 -0.0932098 -0.08244131 0.042298224 0.1080673 0.01963057 -0.026515275
0.037575033 0.028623348 0.0029119104 -0.05254717 -0.030681798 0.028568309 -0.06716774 0.01792061
-0.059537277 0.10638282 -0.11268411 0.032530747 -0.016580857 -0.17313978 0.00033330463 -0.1245882
0.053611565 -0.1265945 -0.15638435 -0.068373546 -0.058703035 0.10997511 0.04851563 0.095445365
0.006742786 0.09128452 -0.0616597 0.025230473 -0.037074503 -0.073617615 0.0346749 0.019754255
0.11910166 -0.062168997 0.10230255 -0.00726887 0.007754245 0.025277637 -0.0701599 0.032708574
-0.15475838 0.02169095 -0.12318533 -0.07073398 0.16460106 0.024690669 -0.0652165 0.006892483
0.03146106 0.017340831 0.08006173 -0.19206035 0.21156996 0.0662064 -0.016373377 -0.076415256
0.01227592 0.009682737 0.00486391 -0.07139895 0.002729247 0.0032405627 0.017215533 0.0074281245
-0.012163995 0.0027243248 -0.07261834 0.03565515 -0.023070054 0.009020675 -0.0097320955 -0.04194734
-0.00033359008 -0.027001664 0.025910072 0.03866446 0.0029196772 0.118702084 -0.010378459 -0.017777564
-0.04168328 -0.00090162334 -0.035497807 -0.04649126 -0.00499754 0.04253845 0.045350984 -0.019174684
0.073434025 0.024695199 0.021364458 0.01659669 0.01736484 -0.057103336 -0.018557273 -0.07805713
0.050203327 0.032270636 -0.030685171 0.15303662 0.012333973 -0.13302724 0.056847017 -0.018395955
0.039658204 0.022368668 -0.08779046 -0.06779623 0.04149788 -0.03799158 -0.034168135 -0.055600177

fc2.bias f4 [50]
00000000: 66a4 0d3e 624c 943e 856d 903d f176 593e
00000010: 1cab a1bd cd5c ea3d e08e 2d3d b77f 82be
00000020: 83ce 623e c75d 323e c396 5f3d 2b31 f33d
00000030: 02bd 67be bf44 18bd 7d19 fdbd 0de2 68be
00000040: 461b 063e 50a0 1abe 3c16 b43d cc8e d7ba
00000050: 863a c2bd 5017 0c3e 276b 1bbe 493e debd
00000060: 7ebf 963d a8c1 63bc b870 26be 732b 213e
00000070: beeb e23d 57d5 003e 5341 6abe 1140 73bd
00000080: 7000 0ebe 1866 373e 705a 6fbe a43c 4dbe
00000090: 3fb1 a73b cda9 1cbe b906 39be f95e ef3d
000000a0: 8eaf 8ebe 4923 283e ce74 f8bd 42b8 683e
000000b0: ffc6 473e e3eb 303d faab ab3c bf6d d7bd
000000c0: 20a8 813d d8bb 2cbd
0.13832244 0.28964525 0.07052139 0.21236779 -0.07893965 0.114434816 0.042372584 -0.25488064
0.2214909 0.17418586 0.054587137 0.118746124 -0.22630695 -0.037174936 -0.12358377 -0.22742482
0.13096341 -0.15100217 0.08793303 -0.0016445755 -0.09483819 0.13680768 -0.15177594 -0.10851724
0.07360743 -0.013901152 -0.16253936 0.15739231 0.110801205 0.12581383 -0.22876482 -0.05938727
-0.13867354 0.1791004 -0.23374343 -0.20042664 0.005117565 -0.15299149 -0.1806897 0.116880365
-0.27868313 0.1641971 -0.12131654 0.22726539 0.19509505 0.04319371 0.020956028 -0.10518979
0.063308954 -0.04217133
