best_model_20240618_075633_256_lr-3_200ep.pth (torch, 791010 bytes, 16 tensors)

conv1.weight f4 [24, 1, 5, 5]
0.106347755 0.1065442 0.3504446 0.59417427 -0.37173903 0.48869956 -0.27947083 0.20682238
-0.09647246 0.13776688 -0.12557334 0.4848783 -0.09578699 0.050985903 0.38251573 -0.6900234
-0.12699775 -0.39182192 0.07059412 0.06581467 0.04792198 -0.4394704 -0.10301578 0.43682015
-0.3582164 0.022248968 0.07606047 -0.012681346 0.39454576 0.070885696 0.22238097 -0.67213416
0.29072237 0.2662499 -0.35720965 0.09130449 0.021536157 -0.26529935 0.25803435 -0.07464115
-0.41648456 0.06850845 0.05663189 0.2247306 0.19551186 0.5231478 0.045027867 -0.12111035
0.2815611 0.48288956 0.22424918 -0.13912338 -0.081343405 -0.07869886 0.14562425 0.19056088
0.11663435 0.1143203 0.25142133 -0.022974161 -0.010591039 -0.028459854 0.06455015 0.2918619
-0.15776159 0.499341 -0.22265455 0.12066347 -0.38078478 0.47119448 -0.37140742 -0.33557272
-0.10905581 -0.31424513 0.22919175 0.03553511 -0.3279531 -0.511548 0.44332457 -0.021056766
0.27828366 -0.38015315 -0.4294599 0.23125437 0.040073056 0.0013375101 0.003061584 -0.37850836
-0.38661084 0.43790933 0.10403673 -0.5294367 0.13571161 0.16274996 -0.18592896 -0.15139712
-0.1448477 -0.07435963 -0.047568657 0.29073772 0.0738974 0.30333817 -0.09402774 0.77752733
0.16403587 -0.15206133 0.14541937 -0.05363758 -0.21254028 -0.21482101 -0.012759969 -0.3568941
-0.2518726 0.16463602 0.05784958 0.05877642 -0.47065204 0.04164162 -0.26968968 0.31738257
-0.0095752785 0.04976232 0.15658867 -0.54928225 0.28994313 -0.0023875192 0.16954508 0.22457567
-0.36649948 0.1606939 0.02872553 -0.22037488 0.12222186 -0.16592818 0.051619843 -0.15229759
-0.4730099 0.21241821 -0.076920405 -0.163117 -0.32241675 -0.25326872 -0.3673808 -0.03475555
0.14381213 -0.5395842 0.67348886 0.018860063 0.39801517 0.11837501 0.022928268 0.47717518
-0.31855005 0.025794772 0.18575227 -0.20616052 -0.28215367 -0.007352347 -0.07748045 0.1682236
-0.3477522 0.41790843 -0.1924906 0.61450434 -0.14322546 0.20816925 -0.37743053 -0.10450849
-0.26025587 0.1330853 0.08268963 0.54247975 -0.20481373 -0.23283367 -0.13091739 0.45441553
0.32554358 0.010784901 -0.30753732 0.23454219 0.1407206 0.29360554 0.13395932 -0.09664997
0.2298592 0.23323207 -0.1313739 0.45115048 0.18054888 -0.051874105 -0.12107264 -0.22608446
-0.19158801 -0.32567278 0.4146433 0.10536723 -0.27299055 -0.13128458 0.14428167 -0.22683628
0.50243413 -0.08488491 -0.20561936 0.032682993 -0.3453678 -0.29069838 -0.08215049 -0.33195555
-0.17045969 -0.11596062 0.019416232 -0.13628896 0.015744919 0.3690548 -0.12666494 -0.13765205
0.4916309 0.6639358 0.64090854 0.110409915 0.0684419 -0.043486893 -0.17982325 -0.3448921
0.37842032 0.25707427 -0.24419868 -0.27519226 -0.024875324 0.2255458 0.16237248 0.036007594
0.08364582 0.051252 -0.18424079 -0.2686573 0.400862 -0.20942698 -0.30084985 0.076863155
-0.31391078 -0.25725728 0.12987606 -0.15398195 -0.34972107 0.5519112 0.14290765 0.45401612
0.39501363 0.25211096 -0.5600027 -0.09797728 -0.38973674 0.53485286 0.16987306 -0.03342402
00000000: dacc d93d d833 da3d 7a6d b33e ce1b 183f
00000010: 9454 bebe d436 fa3e cd16 8fbe 3fc9 533e
00000020: 5a93 c5bd c312 0d3e 4c96 00be f841 f83e
00000030: f82b c4bd 98d6 503d 1ad9 c33e 60a5 30bf
00000040: b30b 02be e29c c8be a693 903d d7c9 863d
00000050: d749 443d 4402 e1be f0f9 d2bd e4a6 df3e
00000060: 2468 b7be 7843 b63c 97c5 9b3d 6cc5 4fbc
00000070: e701 ca3e 852c 913d d6b7 633e fc10 2cbf
00000080: 90d9 943e e851 883e 2fe4 b6be d9fd ba3d
00000090: 986c b03c 51d5 87be 141d 843e 76dd 98bd
000000a0: 773d d5be 294e 8c3d d7f6 673d c71f 663e
000000b0: 4334 483e 04ed 053f 246f 383d b408 f8bd
000000c0: c728 903e 4d3d f73e 94a1 653e 5c76 0ebe
000000d0: 5f97 a6bd de2c a1bd 861e 153e 6422 433e
000000e0: fddd ee3d c320 ea3d 4cba 803e 4f34 bcbc
000000f0: 0a86 2dbc a424 e9bc de32 843d ec6e 953e
00000100: 418c 21be a0a9 ff3e 8eff 63be 691e f73d
00000110: 39f6 c2be 6740 f13e 1d29 bebe 30d0 abbe
00000120: a758 dfbd bde4 a0be 3eb1 6a3e 438d 113d
00000130: 78e9 a7be cff4 02bf 70fb e23e 3d7f acbc
00000140: 327b 8e3e 6fa3 c2be 2be2 dbbe f2cd 6c3e
00000150: a523 243d 644f af3a dba4 483b d9cb c1be
00000160: dbf1 c5be a735 e03e 3611 d53d 2a89 07bf
00000170: fcf7 0a3e eda7 263e 2964 3ebe d907 1bbe
00000180: f552 14be dd49 98bd 5ad7 42bd 93db 943e
00000190: 8557 973d 244f 9b3e 9e91 c0bd 080c 473f
000001a0: 05f9 273e f7b5 1bbe d1e8 143e 14b3 5bbd
000001b0: 29a4 59be 0afa 5bbe 300f 51bc d3ba b6be
000001c0: 72f5 80be 5896 283e aef3 6c3d 8bbf 703d
000001d0: 4ef9 f0be 6790 2a3d c414 8abe f87f a23e
000001e0: a1e1 1cbc 93d3 4b3d c858 203e c39d 0cbf
000001f0: 6d73 943e ed77 1cbb 3a9d 2d3e 2af7 653e
00000200: d2a5 bbbe f18c 243e cd51 eb3c f4a9 61be
00000210: 744f fa3d 14e9 29be 546f 533d e6f3 1bbe
00000220: 5b2e f2be 2984 593e 7288 9dbd 2508 27be
00000230: cf13 a5be 70ac 81be 5619 bcbe d65b 0ebd
00000240: 7d43 133e 3122 0abf c469 2c3f 6b80 9a3c
00000250: a5c8 cb3e 996e f23d 10d4 bb3c 4e50 f43e
00000260: fe18 a3be 8f4f d33c d835 3e3e be1b 53be
00000270: 7276 90be f5eb f0bb 12ae 9ebd cf42 2c3e
00000280: 940c b2be 18f8 d53e 411c 45be 2850 1d3f
00000290: b2a9 12be 522a 553e 933e c1be 8c08 d6bd
000002a0: 4240 85be 8347 083e 2e59 a93d f4df 0a3f
000002b0: b1ba 51be f36b 6ebe 350f 06be 27a9 e83e
000002c0: a6ad a63e 27b3 303c 8875 9dbe d42b 703e
000002d0: 1019 103e 7753 963e a22c 093e 6bf0 c5bd
000002e0: 3660 6b3e 63d4 6e3e e186 06be 32fd e63e
000002f0: cee1 383e f179 54bd eff4 f7bd af82 67be
00000300: a62f 44be 95be a6be 204c d43e c6ca d73d
00000310: 6bc5 8bbe 776f 06be 93be 133e c547 68be
00000320: 869f 003f 24d8 adbd e28d 52be 9ade 053d
00000330: 0cd4 b0be 6bd6 94be 843e a8bd 14f6 a9be
00000340: fc8c 2ebe c37c edbd ca0e 9f3c 558f 0bbe
00000350: 7dfb 803c c0f4 bc3e 74b4 01be a9f4 0cbe
00000360: 0cb7 fb3e b2f7 293f 9512 243f 981e e23d
00000370: 442b 8c3d 501f 32bd 9623 38be b395 b0be
00000380: 4fc0 c13e 3d9f 833e 380f 7abe 00e6 8cbe
00000390: 56c7 cbbc 7af5 663e f944 263e b37c 133d
000003a0: 804e ab3d 9eed 513d 9ea9 3cbe 738d 89be
000003b0: c93d cd3e 0774 56be fe08 9abe 6e6a 9d3d
000003c0: eab8 a0be 3ab7 83be 3bfe 043e 72ad 1dbe
000003d0: a40e b3be 0d4a 0d3f 6256 123e cd74 e83e
000003e0: 3a3f ca3e b014 813e 565c 0fbf 50a8 c8bd
000003f0: 938b c7be 1eec 083f 34f3 2d3e a0e7 08bd

conv1.bias f4 [24]
-0.01747098 -0.07401134 -0.11739428 -0.09854142 -0.12312122 -0.11783591 -0.09071547 -0.0033283858
-0.10384324 -0.12561293 0.0043137074 -0.17170773 -0.0691206 0.274187 -0.06207133 -0.016051784
-0.14604716 -0.11756316 -0.046852827 0.049462266 -0.107878044 -0.053633533 0.056565773 -0.05235493
00000000: 4d1f 8fbc 4293 97bd 6a6c f0bd 16d0 c9bd
00000010: fa26 fcbd f453 f1bd 08c9 b9bd 0c21 5abb
00000020: c4ab d4bd ada0 00be 005a 8d3b 27d4 2fbe
00000030: 1a8f 8dbd 3d62 8c3e 823e 7ebd 087f 83bc
00000040: 638d 15be f4c4 f0bd c0e8 3fbd f298 4a3d
00000050: 2aef dcbd d6ae 5bbd 83b1 673d 2072 56bd

conv2.weight f4 [36, 24, 5, 5]
-0.16007188 -0.0059894826 -0.058773547 -0.0005279455 -0.027211748 0.1095348 -0.0060899244 0.10309566
-0.06870612 -0.087019965 -0.093297325 -0.12007625 -0.13724951 -0.07755023 -0.10017693 -0.075518
-0.22887892 -0.09177761 -0.17605466 -0.05950829 0.11483304 0.19749653 -0.02683701 -0.04898103
0.20528261 -0.054038763 -0.03914666 -0.03374248 -0.08283817 -0.08485542 -0.07153054 0.102075286
-0.04446653 -0.027050212 0.14256428 -0.10844346 -0.027567862 -0.1436706 0.009259481 0.035398714
0.0735245 0.022551576 0.06839985 0.05454468 0.008538063 -0.0375998 -0.07761011 0.06653261
-0.045311354 0.098050974 0.08686593 0.07894435 0.03976774 0.019168856 0.025035605 -0.060649827
0.039434254 -0.013095912 -0.05915293 0.00048516362 0.009921244 0.09354799 -0.09139783 0.02906472
0.061390154 0.04595808 -0.040650927 -0.034386817 -0.1317571 0.041634455 0.018593015 0.085257016
-0.029071063 0.11174257 0.040553164 0.06569753 0.11678194 0.10239775 -0.082075395 -0.090969875
0.11974276 0.1035432 0.10686213 0.051727507 -0.08568866 -0.014201385 0.11309901 0.017892063
0.058145583 0.095041536 -0.0670453 -0.030353785 -0.03931266 -0.02859713 0.013100023 0.12063193
-0.03077399 -0.2176695 -0.029145451 0.06370403 0.059639327 -0.04277955 0.0082936175 -0.019215725
-0.02276346 0.07029063 0.075555906 0.08664953 0.044642247 -0.0722793 -0.040340915 0.06864569
0.03191852 -0.02334358 0.04692051 -0.10167046 -0.10745004 -0.080988966 -0.051830307 -0.072568156
-0.048185777 0.0136633655 -0.15675071 0.30243903 -0.10206422 -0.036444567 -0.05075464 -0.005956048
0.08747711 -0.15537085 0.03781463 0.039365564 -0.012889575 0.1531786 -0.047067728 0.049891226
0.07481819 -0.10810261 -0.037225556 0.047664028 -0.0036357348 0.021707723 0.07983769 0.042011365
-0.024639072 -0.03847465 0.0672503 0.05809136 0.025149923 0.10524724 0.017806262 -0.02358683
-0.013418756 -0.08090471 -0.079091646 0.047336135 -0.016281255 -3.418363e-05 -0.08776062 0.090013735
0.14797781 0.009573192 -0.03164889 0.011797355 0.010829091 0.027289182 0.0573003 0.10152874
-0.113771416 -0.1055647 -0.048323635 0.08743286 -0.022189397 -0.14855838 0.21315558 -0.021714207
0.022669632 0.06645452 0.0060104406 -0.12795895 -0.078788504 0.0069765085 0.05192642 -0.002831891
-0.10198814 0.05634812 -0.053010833 -0.07347166 0.09066942 -0.10408029 0.01848703 0.013713199
-0.076834284 -0.07768843 -0.20183825 -0.13785137 -0.06608125 -0.08678244 0.08476072 -0.14365023
-0.12934315 -0.08176633 -0.10325617 -0.030584034 0.103668936 0.018994791 -0.040836487 0.09317445
0.054820362 0.10400443 0.025671614 -0.10299576 0.033366557 0.07670227 0.1042642 0.026696956
-0.05886941 -0.02495363 0.039481685 0.14822388 -0.016247157 0.020693913 -0.018769955 0.10499319
-0.03402518 -0.017430548 -0.082255214 0.013261938 0.052999202 0.015920848 -0.08377712 -0.06488168
0.06331419 -0.014259118 0.009639156 -0.05810901 0.019091383 0.04086036 0.18233417 0.057617135
-0.03730767 0.030882975 0.04887481 0.023740616 0.11978435 0.034991074 0.15997536 0.11941035
0.0153994635 -0.013919213 -0.02604791 0.027671492 -0.05260827 0.08959409 -0.08794425 0.12776507
00000000: e2e9 23be 6c43 c4bb 88bc 70bd d365 0aba
00000010: 2ceb debc c853 e03d fd8d c7bb d123 d33d
00000020: cbb5 8cbd 8637 b2bd ab12 bfbd 89ea f5bd
00000030: 238b 0cbe a8d2 9ebd 9029 cdbd 2ea9 9abd
00000040: 3c5f 6abe e6f5 bbbd ac47 34be f7be 73bd
00000050: 962d eb3d 883c 4a3e 4ad9 dbbc 55a0 48bd
00000060: 9b35 523e c057 5dbd 4058 20bd 8e35 0abd
00000070: 0fa7 a9bd aec8 adbd 9b7e 92bd d90c d13d
00000080: 8922 36bd 6898 ddbc 5ffc 113e 9b17 debd
00000090: ffd5 e1bc 631e 13be 14b5 173c 3efe 103d
000000a0: 0394 963d 15be b83c 3815 8c3d 3e6a 5f3d
000000b0: 3be3 0b3c 3f02 1abd 0df2 9ebd 4042 883d
000000c0: 6698 39bd f3ce c83d c4e6 b13d 93ad a13d
000000d0: 7fe3 223d 0108 9d3c 7817 cd3c f46b 78bd
000000e0: d085 213d 3c90 56bc 584a 72bd 8f5d fe39
000000f0: b78c 223c 1796 bf3d c92e bbbd 2319 ee3c
00000100: 3e74 7b3d 8a3e 3c3d 9681 26bd 31d9 0cbd
00000110: 55eb 06be e488 2a3d 6150 983c 3b9b ae3d
00000120: 7026 eebc 4ad9 e43d 131b 263d 6d8c 863d
00000130: 5f2b ef3d e9b5 d13d 2517 a8bd 6a4e babd
00000140: b13b f53d 750e d43d 88da da3d 39e0 533d
00000150: 897d afbd edac 68bc 74a0 e73d 6092 923c
00000160: 102a 6e3d 23a5 c23d 0c4f 89bd 80a8 f8bc
00000170: 5006 21bd 8744 eabc 7ba1 563c e00d f73d
00000180: bc19 fcbc c1e4 5ebe 71c2 eebc 4277 823d
00000190: 5e48 743d 9c39 2fbd f4e1 073c 4c6a 9dbc
000001a0: 707a babc 89f4 8f3d 0ebd 9a3d 4f75 b13d
000001b0: cada 363d 2b07 94bd 843c 25bd 1d96 8c3d
000001c0: febc 023d 093b bfbc b82f 403d 9a38 d0bd
000001d0: c40e dcbd 8bdd a5bd 044c 54bd 9d9e 94bd
000001e0: 735e 45bd 4fdc 5f3c 4283 20be 4ad9 9a3e
000001f0: 0c07 d1bd e646 15bd 19e4 4fbd f42a c3bb
00000200: 3327 b33d 8919 1fbe 83e3 1a3d c93d 213d
00000210: cc2e 53bc dada 1c3e 17ca 40bd be5a 4c3d
00000220: 473a 993d e764 ddbd d379 18bd 5b3b 433d
00000230: 8245 6ebb 65d4 b13c f181 a33d 1c14 2c3d
00000240: e1d7 c9bc 9897 1dbd 86ba 893d 35f1 6d3d
00000250: 3607 ce3c dd8b d73d 70de 913c 2b39 c1bc
00000260: 58da 5bbc 5eb1 a5bd cdfa a1bd 89e3 413d
00000270: 4460 85bc 6560 0fb8 d7bb b3bd 1f59 b83d
00000280: 7f87 173e e1d8 1c3c 44a2 01bd b149 413c
00000290: 806c 313c 908d df3c b8b3 6a3d 4dee cf3d
000002a0: fd00 e9bd 4e32 d8bd 01ef 45bd 0010 b33d
000002b0: 8ac6 b5bc b01f 18be 7545 5a3e fee1 b1bc
000002c0: aab5 b93c 4f19 883d 3bf3 c43b ac07 03be
000002d0: de5b a1bd 329b e43b ccb0 543d 3f97 39bb
000002e0: 28df d0bd 49cd 663d e321 59bd 4f78 96bd
000002f0: e4b0 b93d 0c28 d5bd 1d72 973c 53ad 603c
00000300: 4b5b 9dbd 1d1b 9fbd b0ae 4ebe e928 0dbe
00000310: 9b55 87bd feba b1bd 0797 ad3d 0c19 13be
00000320: 8872 04be 1b75 a7bd f977 d3bd 5e8b fabc
00000330: 6150 d43d f79a 9b3c 2944 27bd 3fd2 be3d
00000340: 518b 603d 4600 d53d 474d d23c 71ef d2bd
00000350: 5fab 083d 1416 9d3d 7888 d53d 93b3 da3c
00000360: 0d21 71bd 8e6b ccbc 8cb7 213d 00c8 173e
00000370: c218 85bc 4886 a93c 73c3 99bc ab06 d73d
00000380: fd5d 0bbd 82ca 8ebc 6c75 a8bd 9948 593c
00000390: b115 593d 706c 823c 5793 abbd b0e0 84bd
000003a0: dfaa 813d 139f 69bc 8ded 1d3c b703 6ebd
000003b0: 8865 9c3c 315d 273d cfb5 3a3e f2ff 6b3d
000003c0: edcf 18bd 4bfe fc3c f430 483d ae7b c23c
000003d0: 7f51 f53d cd52 0f3d 95d0 233e 6a8d f43d
000003e0: 084e 7c3c 690d 64bc 6d62 d5bc 53af e23c
000003f0: c57b 57bd 1b7d b73d 1d1c b4bd d9d4 023e

conv2.bias f4 [36]
-0.08950515 -0.010959896 -0.044237316 0.02388379 -0.005252221 -0.060001038 -0.024848215 0.11270642
-0.03973707 -0.059750386 -0.101913355 -0.1970683 -0.06411675 0.0290571 0.0031975417 0.023917228
-0.034057878 0.005117442 -0.1120062 0.011132904 -0.11414395 0.068439595 -0.21718715 -0.07737354
-0.12045713 -0.024674952 -0.0717463 -0.09561598 0.1574375 -0.06378117 0.22056718 0.019768642
-0.025783326 0.0011011702 0.0090515185 -0.004414689
00000000: 7a4e b7bd 2391 33bc 3032 35bd f0a7 c33c
00000010: d31a acbb a6c3 75bd 7c8e cbbc a0d2 e63d
00000020: 57c3 22bd d2bc 74bd f3b7 d0bd 46cc 49be
00000030: a54f 83bd 2809 ee3c d98d 513b 10ee c33c
00000040: 4680 0bbd 37b0 a73b 8263 e5bd c966 363c
00000050: 4ec4 e9bd 0f2a 8c3d 4f66 5ebe 0576 9ebd
00000060: 3ab2 f6bd 2023 cabc b9ef 92bd 50d2 c3bd
00000070: 4c37 213e b49f 82bd 5ddc 613e d9f1 a13c
00000080: 8e37 d3bc 2455 903a d24c 143c 18a9 90bb

conv3.weight f4 [48, 36, 5, 5]
-0.07233555 0.03765227 -0.03409265 0.004502233 0.034241322 -0.09156297 -0.044793244 -0.08888202
0.04779993 0.025689114 -0.08954154 0.044950485 -0.04635003 0.048253912 -0.022056622 0.01947246
-0.1093844 -0.09695536 0.095226124 0.013989587 -0.009679459 -0.14195606 -0.0970214 -0.08236068
-0.12096322 -0.051003825 0.056290533 0.00012958674 -0.072198175 -0.08058918 0.15425028 -0.009928179
0.06550761 -0.04866082 0.051562678 0.011982829 0.015836142 -0.07845282 0.025855977 -0.020797485
-0.00012364547 0.02639198 0.04840142 0.015230204 0.052790083 0.05143254 -0.024157427 -0.038637128
-0.024969663 0.044947915 -0.035350315 0.018607715 0.020090278 -0.033090767 -0.04801347 -0.12289202
0.028527152 0.052886426 -0.09566459 -0.051183496 0.016457597 -0.03153789 0.004029204 0.12433675
-0.022058723 0.033145595 0.0055712145 -0.039830036 -0.048363734 -0.055649146 -0.0033736227 -0.043979395
0.014319745 -0.04766648 -0.023694571 0.050501954 0.0034179753 0.020108197 0.05895647 0.033197515
-0.0769766 0.10414325 -0.006750036 0.03817545 -0.07054328 -0.09236288 -0.18916625 -0.077303685
0.010155724 -0.09044077 -0.060576573 0.042327087 -0.020686066 -0.026715996 0.016405031 -0.09369586
-0.028950356 0.058392398 0.041426294 0.15544052 -0.05990605 -0.12929402 0.06753559 0.020675067
0.30279845 0.031183878 -0.07925524 -0.04282376 0.06305257 -0.022080222 0.053367466 -0.00039924466
-0.03064552 0.045588322 -0.04100085 -0.0078024413 -0.068592876 -0.008938919 0.094163716 0.0471733
-0.04429735 -0.2094621 0.0801483 -0.009846666 -0.0055450797 0.005402405 -0.019887429 0.01369516
-0.024651162 0.023747137 0.0148252975 -0.055864993 -0.013307234 -0.086417176 0.0028546213 -0.101156354
-0.011955107 0.0062966305 -0.019380286 0.11261428 0.05394676 0.011822153 -0.015316557 0.010701586
-0.0040360726 0.0023012308 -0.04097827 -0.07458487 0.058981366 -0.009516811 0.033336237 0.038011283
0.0046138037 0.030430524 0.06513813 0.09355333 0.0060514756 0.117468365 0.099639826 0.18777832
-0.049107008 0.029548395 -0.03556981 -0.012608422 -0.017120946 0.062184796 -0.011770424 0.053869408
0.009953523 0.021030018 -0.100318536 -0.020701332 -0.026956774 0.02939623 0.010380328 -0.065792955
-0.021206312 -0.0377028 -0.04806381 -0.25588608 -0.11923513 -0.024939215 0.027684782 -0.12174087
0.01609346 0.028719855 0.041800015 -0.215929 0.062070355 -0.058664303 -0.024270609 -0.07286145
0.07321566 0.081343345 -0.099176146 0.00922298 -0.004254615 0.07494702 -0.011244333 -0.04321363
0.0384548 0.03312645 0.07291308 0.08594379 -0.019928118 -0.04109365 0.028815892 -0.06694479
-0.022112137 0.04789925 0.018184416 -0.10709285 0.07939719 0.0728637 0.032141667 -0.005125317
-0.1230228 -0.17511237 -0.056550052 -0.057381578 -0.058511235 -0.07680864 0.076761514 0.0037211075
-0.08107459 0.009405239 -0.03458602 0.011198988 -0.045455206 -0.058904443 -0.046531547 -0.041303337
0.026494691 0.04943916 0.051248204 -0.014099468 -0.028142842 -0.06552999 -0.12232793 -0.065291
0.012778736 -0.045580387 -0.095347665 -0.01377942 -0.017026627 -0.036669094 -0.09433702 0.0015249335
0.05629682 0.011362457 -0.00054638763 0.0063889874 -0.060326383 0.0047039827 -0.099473566 0.022569928
00000000: a924 94bd 4439 1a3d bca4 0bbd 7887 933b
00000010: a140 0c3d 5e85 bbbd 1f79 37bd c707 b6bd
00000020: dcc9 433d fa71 d23c 8e61 b7bd 001e 383d
00000030: 87d9 3dbd e5a5 453d 17b0 b4bc b584 9f3c
00000040: ee04 e0bd 8890 c6bd ea05 c33d 9534 653c
00000050: 9896 1ebc ee5c 11be 28b3 c6bd b7ac a8bd
00000060: 91bb f7bd 63e9 50bd e790 663d ade1 0739
00000070: a3dc 93bd f10b a5bd c9f3 1d3e cda9 22bc
00000080: db28 863d 9150 47bd 6333 533d a153 443c
00000090: ccba 813c dfab a0bd eacf d33c 7d5f aabc
000000a0: d4a6 01b9 fe33 d83c 9140 463d 1b88 793c
000000b0: 6a3a 583d edaa 523d cce5 c5bc f741 1ebd
000000c0: 2e8d ccbc 4e1b 383d 7ecb 10bd 356f 983c
000000d0: 5e94 a43c 2f8a 07bd c6a9 44bd d0ae fbbd
000000e0: c6b1 e93c 709f 583d cceb c3bd c9a5 51bd
000000f0: 15d2 863c e02d 01bd 6a07 843b 44a4 fe3d
00000100: 7fb4 b4bc adc3 073d bc8e b63b d224 23bd
00000110: 0d19 46bd 5cf0 63bd ff17 5dbb bd23 34bd
00000120: 5d9d 6a3c ed3d 43bd 1e1b c2bc 23db 4e3d
00000130: 1c00 603b f2b9 a43c 577c 713d 1efa 073d
00000140: e8a5 9dbd 0e49 d53d 682f ddbb dc5d 1c3d
00000150: ff78 90bd c028 bdbd ccb4 41be 6551 9ebd
00000160: 3264 263c 0339 b9bd 241f 78bd 2b5f 2d3d
00000170: d375 a9bc 81db dabc d863 863c 9de3 bfbd
00000180: 4c29 edbc de2c 6f3d 9eae 293d cd2b 1f3e
00000190: 0c60 75bd a765 04be 1950 8a3d c25e a93c
000001a0: 6608 9b3e 5575 ff3c 9250 a2bd f867 2fbd
000001b0: b521 813d 95e1 b4bc d897 5a3d b651 d1b9
000001c0: 500c fbbc d2ba 3a3d 82f0 27bd 9fab ffbb
000001d0: 6c7a 8cbd 8b74 12bc e8d8 c03d ca38 413d
000001e0: 2371 35bd 3c7d 56be cb24 a43d e953 21bc
000001f0: 80b3 b5bb a806 b13b f6ea a2bc aa61 603c
00000200: 3cf1 c9bc 5b89 c23c cee5 723c b1d2 64bd
00000210: 9606 5abc 7dfb b0bd 9914 3b3b 102b cfbd
00000220: 5adf 43bc f753 ce3b 68c3 9ebc 51a2 e63d
00000230: 47f7 5c3d b4b1 413c 4cf2 7abc b455 2f3c
00000240: 0841 84bb 3fd0 163b d5d8 27bd f4bf 98bd
00000250: 7296 713d 66ec 1bbc 948b 083d b8b1 1b3d
00000260: 642f 973b 6f49 f93c 2467 853d e398 bf3d
00000270: 754b c63b 4193 f03d f70f cc3d f648 403e
00000280: 6e24 49bd 7a0f f23c a6b1 11bd 8e93 4ebc
00000290: 3a41 8cbc 7cb5 7e3d bdd8 40bc 2ba6 5c3d
000002a0: 1a14 233c 2547 ac3c ce73 cdbd d795 a9bc
000002b0: 74d4 dcbc 5dd0 f03c 4012 2a3c 75be 86bd
000002c0: dcb8 adbc 406e 1abd 8fde 44bd 8003 83be
000002d0: 8c31 f4bd 534d ccbc 32cb e23c 4753 f9bd
000002e0: 6fd6 833c e745 eb3c 7e36 2b3d 7e1c 5dbe
000002f0: 7c3d 7e3d fb49 70bd 28d3 c6bc 6238 95bd
00000300: 18f2 953d 5797 a63d dd1c cbbd fb1b 173c
00000310: 4c6a 8bbb d37d 993d 273a 38bc c600 31bd
00000320: c882 1d3d 9aaf 073d 7453 953d 4c03 b03d
00000330: 4b40 a3bc d151 28bd 4e0f ec3c 5a1a 89bd
00000340: 8324 b5bc 0132 443d 7cf7 943c 7f53 dbbd
00000350: fe9a a23d 9039 953d fba6 033d 46f2 a7bb
00000360: 61f3 fbbd a850 33be 07a1 67bd f208 6bbd
00000370: 7aa9 6fbd d94d 9dbd 2435 9d3d d3dd 733b
00000380: 6f0a a6bd 6e18 1a3c 12aa 0dbd f67b 373c
00000390: 3d2f 3abd c945 71bd dd97 3ebd b02d 29bd
000003a0: 650b d93c b780 4a3d a3e9 513d 7401 67bc
000003b0: d18b e6bc 9634 86bd 1187 fabd 4ab7 85bd
000003c0: e75d 513c 80b2 3abd a345 c3bd 14c3 61bc
000003d0: 6d7b 8bbc 5532 16bd c433 c1bd 47e0 c73a
000003e0: 7f97 663d 9929 3a3c 743b 0fba b65a d13b
000003f0: cc18 77bd de23 9a3b ccb8 cbbd 92e4 b83c

conv3.bias f4 [48]
-0.0040370435 0.04073846 -0.017972786 0.041089017 -0.058234863 0.18449382 -0.046279423 0.07961978
-0.10511551 -0.0077335937 0.0033601387 -0.05588812 0.090909846 -0.11197817 -0.059009533 -0.032873992
-0.024594387 -0.0840332 -0.05366837 -0.025517548 -0.025776941 0.048897043 -0.06633006 0.04755422
-0.053020425 -0.08845377 0.015712297 -0.09855344 -0.062856525 0.06043042 -0.017486636 0.02988732
0.018657945 0.15033318 0.19541718 -0.1485448 0.040998418 0.06162465 0.008239575 -0.008969142
-0.009008779 -0.03597494 -0.16570352 0.018748816 -0.021458818 -0.043576013 -0.044452094 0.029918756
00000000: 2d49 84bb 5fdd 263d aa3b 93bc f54c 283d
00000010: ae87 6ebd f3eb 3c3e 7e8f 3dbd b20f a33d
00000020: cd46 d7bd 166a fdbb c635 5c3b f1ea 64bd
00000030: f12e ba3d d054 e5bd fbb3 71bd e1a6 06bd
00000040: 2b7a c9bc 9919 acbd 5dd3 5bbd 2d0a d1bc
00000050: 2a2a d3bc 4448 483d 0ed8 87bd 37c8 423d
00000060: f22b 59bd 4027 b5bd 13b7 803c 63d6 c9bd
00000070: ecba 80bd e385 773d 2240 8fbc 41d6 f43c
00000080: 8cd8 983c f1f0 193e 711b 483e 211c 18be
00000090: f5ed 273d 216a 7c3d 48ff 063c 4ff3 12bc
000000a0: 8f99 13bc 755a 13bd 2fae 29be 1e97 993c
000000b0: 67ca afbc c37c 32bd 6613 36bd 2e18 f53c

conv4.weight f4 [64, 48, 3, 3]
-0.13088939 0.03150846 0.033615436 -0.14268897 -0.039726723 0.015876759 -0.052419342 -0.06446302
-0.14196385 -0.119377516 -0.09752557 0.036083743 0.037833016 -0.062447593 -0.15427877 -0.029580066
0.098334484 0.09118309 -0.02819583 -0.016999291 -0.16335659 -0.011996864 -0.05428185 -0.02621266
0.17350672 0.1231233 0.17555332 -0.061682254 0.026736002 0.06320119 0.10251757 0.07723865
0.016160274 -0.13033682 0.11815383 0.0012803804 -0.1373511 -0.062272888 -0.067428865 0.015160494
-0.031813234 -0.031116096 -0.028319474 -0.04562949 -0.06663956 -0.12495011 -0.0022700285 -0.021943092
0.012631996 -0.23385085 -0.08887282 0.07863727 0.12395771 0.16733982 0.06987604 -0.032544043
0.089833714 0.035068236 0.10141838 0.0056496407 -0.043567214 -0.071894415 0.012766652 0.026946867
0.053939637 0.048385236 0.09987367 -0.00051900715 -0.046892863 -0.1113124 -0.073546804 0.054972984
0.036277857 -0.029558524 0.07478177 -0.018667312 0.0022761924 -0.11055848 -0.010582724 -0.015065126
0.060050093 -0.21831775 -0.08620063 -0.10178126 0.03228705 0.10475195 0.08026976 0.0071893414
-0.022166148 0.1004776 0.0033015483 -0.09713938 -0.13562353 -0.07090735 -0.21490455 -0.045721047
0.10548905 -0.03599517 -0.0033069775 0.07223574 -0.008612077 -0.042839106 -0.1284557 0.149647
0.08000096 0.049607415 0.0816725 0.07973108 -0.02170783 -0.15544933 -0.14744547 -0.0097339135
-0.12176759 0.035160884 0.095645085 0.019677212 0.02679361 0.2000751 0.15251781 0.13008207
0.09554991 -0.08194199 0.030380964 0.12667187 0.12853193 0.099394225 0.08401987 0.08517539
0.110235415 0.008247497 -0.15662073 -0.06555762 -0.0069075073 -0.004382711 0.037098486 0.011659376
0.030562185 0.135221 -0.0600852 -0.049292926 0.1119113 -0.027205324 -0.011544307 -0.019777432
-0.05211948 -0.054937396 -0.14724128 0.018617237 -0.056186836 -0.15362905 -0.0347855 -0.030358562
-0.0680192 -0.029595176 0.07828521 0.055032022 -0.02431078 0.07652551 0.11149912 -0.025011137
0.065512456 0.10595728 -0.050774265 -0.0062006908 0.008835023 0.097313784 0.04640192 -0.038234238
-0.04333839 -0.013636805 0.07985608 -0.122140706 -0.0523423 -0.1334162 -0.04518438 -0.0013708305
0.04662656 -0.056687612 -0.008974877 0.122904964 0.08363967 -0.1072472 0.015568469 0.0075093084
0.08253087 0.05809008 -0.0019839632 -0.055798296 0.08156409 -0.0071446365 -0.08184388 0.10559541
0.018853582 -0.052353024 -0.08777607 -0.01164949 -0.09613385 -0.17803349 -0.0063631455 0.06725364
0.05601398 0.06129373 0.12565382 0.09635284 0.077626705 0.098180324 -0.12263136 0.06945937
-0.06371619 0.0018815348 0.038580313 -0.012235599 0.042798914 0.11219992 0.013392461 0.12862602
0.037007984 0.06739292 0.040553514 0.04960754 0.10765879 -0.062201973 0.03294101 -0.015585072
0.01713732 0.020447735 0.074328534 0.029826567 0.0071672727 0.027400436 0.17209308 -0.031398155
-0.0072307005 -0.13211119 -0.05795152 -0.017265642 -0.034799635 -0.09091964 -0.049802475 0.054744266
0.00068371376 0.09658388 -0.025153555 -0.01901383 -0.089240804 -0.08935794 -0.11720117 -0.08456121
-0.009976188 0.00838005 -0.017809352 0.00056835974 0.11144752 -0.07563404 0.12536429 0.053339146
00000000: de07 06be 040f 013d 57b0 093d 0f1d 12be
00000010: 7db8 22bd fa0f 823c aab5 56bd 3005 84bd
00000020: f95e 11be 337c f4bd 7cbb c7bd 8ccc 133d
00000030: cbf6 1a3d 0cc9 7fbd 41fb 1dbe e551 f2bc
00000040: 9763 c93d 33be ba3d f1fa e6bc 1942 8bbc
00000050: f346 27be 7f8e 44bc a556 5ebd efbb d6bc
00000060: bfab 313e 1228 fc3d 40c4 333e 88a6 7cbd
00000070: 7605 db3c a06f 813d bbf4 d13d 4c2f 9e3d
00000080: 8d62 843c 0477 05be a3fa f13d 70d2 a73a
00000090: c4a5 0cbe db11 7fbd 2518 8abd b863 783c
000000a0: 984e 02bd 2fe7 febc 3efe e7bc fde5 3abd
000000b0: 527a 88bd d8e5 ffbd c2c4 14bb 00c2 b3bc
000000c0: 6ef6 4e3c 9976 6fbe f402 b6bd 940c a13d
000000d0: 8add fd3d 215b 2b3e 2b1b 8f3d e74c 05bd
000000e0: bdfa b73d b6a3 0f3d 71b4 cf3d 9f20 b93b
000000f0: 8973 32bd 613d 93bd 382b 513c adbf dc3c
00000100: cfef 5c3d 992f 463d 918a cc3d fb0d 08ba
00000110: bb12 40bd c1f7 e3bd b59f 96bd 5a2b 613d
00000120: 1798 143d b824 f2bc 2f27 993d 31ec 98bc
00000130: 2c2c 153b 7c6c e2bd 2963 2dbc b8d3 76bc
00000140: 16f7 753d b08e 5fbe f589 b0bd b172 d0bd
00000150: 6d3f 043d 3188 d63d 7964 a43d 9194 eb3b
00000160: c895 b5bc 33c7 cd3d ca5e 583b 03f1 c6bd
00000170: e5e0 0abe df37 91bd f00f 5cbe fe45 3bbd
00000180: a50a d83d ac6f 13bd e0b9 58bb 55f0 933d
00000190: ab19 0dbc 0f78 2fbd e489 03be 103d 193e
000001a0: 8bd7 a33d 2531 4b3d e943 a73d 0c4a a33d
000001b0: 9ed4 b1bc 1c2e 1fbe f2fb 16be fe7a 1fbc
000001c0: 4961 f9bd dc04 103d 92e1 c33d 1b32 a13c
000001d0: 467e db3c 7de0 4c3e a12d 1c3e 3c34 053e
000001e0: acaf c33d 34d1 a7bd 80e1 f83c 45b6 013e
000001f0: e09d 033e 338f cb3d 9c12 ac3d 6f70 ae3d
00000200: 1bc3 e13d 8220 073c 2f61 20be 1343 86bd
00000210: 5f58 e2bb d89c 8fbb 95f4 173d f806 3f3c
00000220: 8c5d fa3c 6077 0a3e e61b 76bd 61e7 49bd
00000230: c031 e53d b3dd debc 5524 3dbc 4804 a2bc
00000240: 3c7b 55bd 0906 61bd 6bc6 16be 2d83 983c
00000250: 2b24 66bd ef50 1dbe 3e7b 0ebd 85b2 f8bc
00000260: a64d 8bbd 9571 f2bc ff53 a03d 4269 613d
00000270: 6727 c7bc 68b9 9c3d a759 e43d 28e4 ccbc
00000280: 652b 863d 2100 d93d adf8 4fbd 2a2f cbbb
00000290: c6c0 103c 734c c73d f10f 3e3d 819b 1cbd
000002a0: 9883 31bd e86c 5fbc 968b a33d e824 fabd
000002b0: e164 56bd 429e 08be 4213 39bd 70ad b3ba
000002c0: 7efb 3e3d 4531 68bd 5d0b 13bc 99b5 fb3d
000002d0: 464b ab3d 6ca4 dbbd e412 7f3c a510 f63b
000002e0: f205 a93d ddef 6d3d 6105 02bb c18c 64bd
000002f0: 130b a73d 8e1d eabb c49d a7bd 6842 d83d
00000300: d472 9a3c 2070 56bd f1c3 b3bd 81dd 3ebc
00000310: d3e1 c4bd 694e 36be ef81 d0bb 47bc 893d
00000320: ea6e 653d 220f 7b3d 65ab 003e a354 c53d
00000330: c0fa 9e3d c412 c93d 2726 fbbd b740 8e3d
00000340: a27d 82bd d59d f63a 6406 1e3d d277 48bc
00000350: ea4d 2f3d 12c9 e53d 0e6c 5b3c 8ab6 033e
00000360: af95 173d 4d05 8a3d 711b 263d 4731 4b3d
00000370: 367c dc3d 7fc7 7ebd 27ed 063d 8858 7fbc
00000380: 9163 8c3c 0282 a73c 8f39 983d d856 f43c
00000390: 71db ea3b e176 e03c 2b39 303e 5a9b 00bd
000003a0: 83ef ecbb 2848 07be 935e 6dbd ad70 8dbc
000003b0: 108a 0ebd 1434 babd aefd 4bbd 863b 603d
000003c0: 413b 333a c5cd c53d d40e cebc e4c2 9bbc
000003d0: e2c3 b6bd 4c01 b7bd 2b07 f0bd 6d2e adbd
000003e0: 2a73 23bc 7a4c 093c ebe4 91bc fafd 143a
000003f0: 993e e43d 05e6 9abd 7f5f 003e 267a 5a3d

conv4.bias f4 [64]
-9.715344e-05 -0.0794392 -0.016816093 -0.008722789 -5.1881165e-05 0.08929413 -0.15114151 -0.08477893
0.057423875 0.02678099 -0.07140278 -0.057680443 0.07728694 -0.013505585 -0.023155604 0.02295307
0.00080688414 -0.106942065 0.18293606 0.0044697383 0.014615392 -0.08105643 0.00696689 0.037211906
-0.018663088 0.009421101 -0.11562972 -0.06112721 -0.011343069 -0.08050006 0.069375575 0.08471763
-0.07685356 0.006517783 -0.025124274 -0.271941 -0.025395561 0.003644148 -0.034015775 0.0016862613
0.081003726 0.20602416 0.07473553 -0.027418384 0.079666846 -0.051208235 -0.029267967 0.044816315
-0.065596975 -0.14093879 0.013693539 -0.013222686 -0.11214756 0.04909727 -0.020613164 -0.1288926
0.026247196 -0.0037688382 0.0075025 0.036535975 -0.00883229 0.006846043 -0.074558936 0.008021601
00000000: dbbe cbb8 05b1 a2bd e7c1 89bc 07ea 0ebc
00000010: fa9a 59b8 d7df b63d d7c4 1abe 93a0 adbd
00000020: 4c35 6b3d cf63 db3c 9f3b 92bd 5442 6cbd
00000030: 9d48 9e3d 8746 5dbc d2b0 bdbc 1408 bc3c
00000040: 1485 533a 7104 dbbd 9753 3b3e e276 923b
00000050: 6675 6f3c ea00 a6bd 824a e43b 836b 183d
00000060: 55e3 98bc f65a 1a3c 46cf ecbd 8660 7abd
00000070: 48d8 39bc 37dd a4bd c814 8e3d 7080 ad3d
00000080: 6665 9dbd 2093 d53b 6cd1 cdbc da3b 8bbe
00000090: 5a0a d0bc a8d2 6e3b 2054 0bbd 8a05 dd3a
000000a0: 48e5 a53d fff7 523e f10e 993d 859c e0bc
000000b0: 5f28 a33d babf 51bd 60c3 efbc 5091 373d
000000c0: b557 86bd 4252 10be de5a 603c f7a3 58bc
000000d0: 9fad e5bd 381a 493d f0dc a8bc 6cfc 03be
000000e0: 5c04 d73c 9dfe 76bb 88d7 f53b bfa6 153d
000000f0: 4fb5 10bc c554 e03b 5bb2 98bd 086d 033c

fc1.weight f4 [100, 960]
-0.013698544 0.038155075 -0.051657695 0.027162671 0.0040673804 0.10686782 0.03770102 0.023690522
0.0012373148 -0.04304549 -0.0014717643 -0.003893883 -0.057771437 -0.10119206 0.016405756 -0.12278354
-0.032298956 -0.061175402 -0.06605908 -0.08232191 0.13020638 -0.02417163 -0.0005594453 -0.059055697
-0.05399844 0.0718976 -0.07610044 0.041549005 -0.04029205 0.061473794 -0.026430648 0.00034982155
0.05756431 0.0917798 -0.04799667 0.008411947 0.032679062 -0.0052262945 0.10003042 0.060986154
-0.015341822 -0.007378306 -0.10223044 -0.027465021 0.034665342 -0.018670596 -0.025536051 0.016813615
0.06487994 0.0064363936 -0.036160216 -0.054347977 0.025703862 -0.027409043 -0.02524667 0.030973366
0.0049658613 -0.027757838 -0.09854664 -0.0031940714 0.005208834 0.054092165 0.013749049 0.008663459
-0.022194708 0.00030958361 -0.038447283 -0.07592769 -0.015497979 0.046320837 0.014781318 0.038460284
0.039757248 0.023489308 0.0510986 0.018770803 0.057452448 -0.008462585 0.0023061843 0.11535402
0.054843944 0.019163335 0.069060065 -0.017867014 -0.0032427646 -0.043377973 -0.0600582 -0.056114525
-0.05121558 0.032493994 0.008781093 -0.035303712 0.09881614 -0.032197222 -0.024495112 -0.02678045
-0.017244782 0.068057336 0.036661047 -0.00062558387 -0.07720349 0.038104303 0.021584034 0.017401308
-0.04488764 0.047294375 -0.029751068 0.015261028 0.00905368 -0.021903636 -0.023069063 -0.026184523
-0.04142454 -0.013708032 -0.032614917 0.08646618 -0.045200806 -0.057235118 -0.022277309 -0.050459646
-0.018740071 0.008554844 -0.006632126 0.0678422 -0.056647394 0.008913597 -0.0886235 0.02667152
-0.04914504 0.013247662 0.07965202 0.030899383 0.030416368 0.0009897186 0.009635306 -0.073983274
-0.034662127 -0.023345487 -0.020542882 0.038647465 -0.05882737 0.030920722 -0.011165521 0.034651052
-0.026733356 0.03376571 0.051526595 0.018752258 0.08706275 0.04552099 -0.11074733 0.004211522
0.03651469 -0.023576299 0.03692164 0.025676211 -0.122770995 0.021699874 0.039677683 -0.057388514
0.029367892 0.04438033 0.06122294 0.004358029 -0.0869863 -0.07227535 0.006397175 -0.088962704
0.02319775 0.0156662 -0.034540616 0.003003696 0.06501839 -0.025741925 -0.010184746 -0.013445146
-0.013637076 0.021963865 -0.0012516818 0.0005152741 -0.1361176 -0.015047738 -0.013513127 0.07593342
-0.00955229 0.086137466 0.038683593 -0.08061425 -0.08335737 0.0040825913 -0.057733856 -0.011405179
0.08980279 0.09336359 0.016473949 -0.0012569196 -0.07217181 0.05536192 0.029895943 0.010620426
0.0049852533 -0.026530366 0.076725475 -0.040956926 0.04010248 0.027259871 0.0057274764 -0.057779126
-0.05097183 0.019399337 -0.1318202 -0.060043115 -0.04335944 -0.07537383 0.04747473 -0.032770906
-0.08401684 0.079957 -0.09235859 -0.040499464 -0.0046696602 -0.04788701 0.042261213 0.0014171805
0.02566944 0.07380141 -0.018470788 -0.015705608 0.10326802 0.11243192 -0.055569835 -0.043785803
-0.08266888 0.00066899945 0.053318538 -0.021849813 -0.021734707 -0.09806816 -0.024800753 0.020637186
-0.035911918 0.042642884 0.0057302983 0.00077255716 -0.06344765 0.051305424 -0.025648938 0.03301064
0.02078565 -0.03985851 -0.07911269 -0.029964926 0.0015043142 -0.08634759 -0.03605169 0.013085532
00000000: dc6f 60bc 7f48 1c3d 0597 53bd 4084 de3c
00000010: a947 853b 84dd da3d 626c 1a3d a012 c23c
00000020: 652d a23a 7850 30bd 37e8 c0ba 8430 7fbb
00000030: bea1 6cbd c83d cfbd 5d65 863c f075 fbbd
00000040: e94b 04bd 0f93 7abd fc49 87bd 6498 a8bd
00000050: d254 053e 9503 c6bc bda7 12ba 63e4 71bd
00000060: 782d 5dbd 0d3f 933d 8cda 9bbd 4a2f 2a3d
00000070: 4709 25bd f2cb 7b3d 1685 d8bc 4168 b739
00000080: 8ec8 6b3d 0cf7 bb3d 2898 44bd 43d2 093c
00000090: 7bda 053d 5641 abbb c0dc cc3d 9ecc 793d
000000a0: 445c 7bbc b7c5 f1bb 315e d1bd 53fe e0bc
000000b0: 3ffd 0d3d 14f3 98bc fb30 d1bc b5bc 893c
000000c0: c6df 843d 62e8 d23b bc1c 14bd fc9b 5ebd
000000d0: e890 d23c ee88 e0bc 1bd2 cebc dbbb fd3c
000000e0: aab8 a23b 6864 e3bc d2d2 c9bd a053 51bb
000000f0: deae aa3b bf8f 5d3d b143 613c 2ef1 0d3c
00000100: add1 b5bc 9c4f a239 e67a 1dbd fa7f 9bbd
00000110: 3ceb 7dbc ebba 3d3d 572d 723c 8888 1d3d
00000120: 7fd8 223d a66c c03c c44c 513d 3ac5 993c
00000130: 4253 6b3d a7a6 0abc 5a23 173b ba3e ec3d
00000140: 0ba4 603d 6dfc 9c3c 5d6f 8d3d d85d 92bc
00000150: 9084 54bb 1aad 31bd 96ff 75bd 58d8 65bd
00000160: 6ec7 51bd 6c18 053d 93de 0f3c a09a 10bd
00000170: 1e60 ca3d 3ce1 03bd f9a9 c8bc ad62 dbbc
00000180: ee44 8dbc a561 8b3d e529 163d 39fe 23ba
00000190: dd1c 9ebd 4213 1c3d 00d1 b03c 308d 8e3c
000001a0: 1adc 37bd bfb7 413d 83b8 f3bc 6409 7a3c
000001b0: e355 143c 416f b3bc 55fb bcbc ed80 d6bc
000001c0: c7ac 29bd a797 60bc 3897 05bd 2e15 b13d
000001d0: 7b24 39bd 5f6f 6abd e77e b6bc c6ae 4ebd
000001e0: c784 99bc 9e29 0c3c 4e52 d9bb daf0 8a3d
000001f0: 1907 68bd 560a 123c 3d80 b5bd 3b7e da3c
00000200: 4f4c 49bd b90c 593c 9920 a33d b420 fd3c
00000210: bf2b f93c 72b9 813a 67dd 1d3c 8b84 97bd
00000220: e0f9 0dbd 093f bfbc 8c49 a8bc ce4c 1e3d
00000230: f8f4 70bd 744d fd3c 97ef 36bc 43ee 0d3d
00000240: e9ff dabc ea4d 0a3d 8d0d 533d 569e 993c
00000250: f44d b23d 3874 3a3d 7fcf e2bd cf00 8a3b
00000260: 6d90 153d 1523 c1bc 253b 173d eb56 d23c
00000270: 5c6f fbbd efc3 b13c 1185 223d 3810 6bbd
00000280: ef94 f03c 26c8 353d e8c4 7a3d cccd 8e3b
00000290: e025 b2bd 1905 94bd 659f d13b 1432 b6bd
000002a0: 3509 be3c 6756 803c 767a 0dbd a8d9 443b
000002b0: 5d28 853d bbe0 d2bc ecdd 26bc 0849 5cbc
000002c0: 0b6e 5fbc 90ed b33c 790f a4ba 7613 073a
000002d0: 6a62 0bbe ca8a 76bc 2a66 5dbc fb82 9b3d
000002e0: 3581 1cbc d768 b03d b072 1e3d 1519 a5bd
000002f0: 45b7 aabd 42c7 853b 567a 6cbd cadc 3abc
00000300: 86ea b73d 6935 bf3d 60f4 863c 39bf a4ba
00000310: d0ce 93bd 2ec3 623d 56e8 f43c 4c01 2e3c
00000320: 565b a33b 3656 d9bc 3f22 9d3d 73c2 27bd
00000330: 8042 243d 1850 df3c 8ead bb3b cea9 6cbd
00000340: d6c7 50bd 5ceb 9e3c e0fb 06be c5ef 75bd
00000350: ab99 31bd 985d 9abd dd74 423d c93a 06bd
00000360: 0511 acbd 7fc0 a33d 8026 bdbd c4e2 25bd
00000370: f303 99bb 2b25 44bd 181a 2d3d b0c0 b93a
00000380: b848 d23c 3225 973d 0d50 97bc 0ca9 80bc
00000390: 2f7e d33d b542 e63d 329d 63bd be58 33bd
000003a0: 4d4e a9bd cb5f 2f3a 8a64 5a3d 61fe b2bc
000003b0: fc0c b2bc f6d7 c8bd f32a cbbc 510f a93c
000003c0: 6018 13bd 4eaa 2e3d 3ac5 bb3b 6f85 4a3a
000003d0: d7f0 81bd a325 523d b91d d2bc 2a36 073d
000003e0: ab46 aa3c ad42 23bd d605 a2bd 0179 f5bc
000003f0: 692c c53a 01d7 b0bd f0aa 13bd b364 563c

fc1.bias f4 [100]
-0.0351601 -0.0051539186 0.02702575 0.008485038 0.112689264 0.0014401212 -0.0103724515 0.06673288
-0.044844553 -0.078641556 0.05899674 -0.06665118 0.046520077 0.092022434 -0.10641451 -0.03953617
0.10744217 0.10487729 -0.049300134 -0.06994979 -0.039045643 -0.022474991 -0.065472975 -0.03199145
-0.020088235 -0.033138435 0.030208059 -0.08774778 -0.06345628 -0.004750477 -0.084030434 -0.013742494
-0.013681371 -0.0779904 -0.050805774 0.11283884 -0.07513929 0.08549724 0.04285317 -0.08595437
0.036255952 0.029227292 0.02746165 0.025431076 -0.103993334 -0.07724412 0.06453321 0.0849715
-0.039029054 0.0528047 -0.039206892 0.14464687 -0.1358352 -0.07881287 -0.10705477 -0.0034182
-0.1152585 0.10018759 0.021947846 -0.038206026 -0.0895675 -0.0063386285 0.1290834 -0.10726572
0.006633151 0.044380873 -0.03726522 -0.14412211 -0.03211624 0.0057545574 -0.109547734 0.040450618
-0.042987395 0.032117296 -0.02353065 0.026776452 0.06053795 -0.112383425 0.03977802 0.018339586
0.08680478 -0.022012953 0.08693807 0.005446905 0.118509986 0.04574939 0.05147736 -0.006933678
0.05703976 0.076945834 0.048428096 0.02023279 -0.059357982 -0.10519418 -0.0036772976 -0.025093103
-0.04851246 -0.030360326 0.005556279 -0.20129335
00000000: 0904 10bd 34e2 a8bb 1b65 dd3c d404 0b3c
00000010: a1c9 e63d 73c2 bc3a 37f1 29bc 40ab 883d
00000020: ecae 37bd d30e a1bd 91a6 713d 6a80 88bd
00000030: d68b 3e3d 4276 bc3d daef d9bd aef0 21bd
00000040: a40a dc3d e8c9 d63d f0ee 49bd d641 8fbd
00000050: 53ee 1fbd 791d b8bc b216 86bd 7709 03bd
00000060: 1590 a4bc 2bbc 07bd e476 f73c 1cb5 b3bd
00000070: 5ef5 81bd e4a9 9bbb 2618 acbd 3328 61bc
00000080: d427 60bc 6eb9 9fbd b719 50bd 0d18 e73d
00000090: a1e2 99bd 2d19 af3d ce86 2f3d d808 b0bd
000000a0: 1f81 143d 136e ef3c 41f7 e03c d554 d03c
000000b0: 75fa d4bd 2a32 9ebd fd29 843d 8a05 ae3d
000000c0: eedc 1fbd be49 583d 6897 20bd 4f1e 143e
000000d0: 6218 0bbe a468 a1bd 883f dbbd e103 60bb
000000e0: a60c ecbd 272f cd3d f8cb b33c ec7d 1cbd
000000f0: 2a6f b7bd 45b4 cfbb 702e 043e 21ae dbbd
00000100: e75a d93b b8c8 353d 6aa3 18bd bf94 13be
00000110: 528c 03bd ba90 bc3b 905a e0bd 8caf 253d
00000120: 8d13 30bd 6d8d 033d 5ac3 c0bc 4a5a db3c
00000130: a4f6 773d 4829 e6bd 47ee 223d e63c 963c
00000140: b4c6 b13d 8254 b4bc 960c b23d f37b b23b
00000150: 5db5 f23d b663 3b3d edd9 523d e833 e3bb
00000160: 86a2 693d c795 9d3d 8a5c 463d 3cbf a53c
00000170: 5b21 73bd 0c70 d7bd d1fe 70bb 0d90 cdbc
00000180: 00b5 46bd 38b6 f8bc 7211 b63b d81f 4ebe

fc2.weight f4 [50, 100]
0.0693648 -0.045269944 -0.14155509 0.048989695 0.23936154 -0.09370538 -0.13530418 0.15146907
-0.087801 -0.011507457 0.10934583 0.028980564 0.06640162 -0.13126479 0.21748771 -0.10839452
0.068047866 -0.008206599 -0.24735105 0.2203443 -0.0037138301 -0.061872527 -0.21934931 -0.0042719305
0.09640921 0.032959107 -0.035478827 -0.072119914 0.09102668 0.029978957 0.09844582 -0.1414649
0.14719902 0.07463259 -0.14443295 -0.11477686 -0.23911406 0.06818392 -0.1430412 0.116403945
0.03304334 -0.12180134 -0.023858223 0.18869597 -0.017673012 -0.01154982 0.1023831 0.0651511
-0.19422396 -0.015157525 0.28990737 0.040023044 -0.2080982 0.0746351 0.17587447 0.053057466
0.1469264 -0.03307727 -0.13289912 0.017670814 -0.07485446 0.03579242 0.012876993 0.0086665
0.010880687 0.018555427 0.012949534 -0.13796055 0.1091446 0.12026885 -0.00985149 0.07219753
0.027451178 0.067641556 0.07990683 0.016682748 0.011494661 0.020176612 -0.019795623 -0.18219239
0.21478492 0.056424957 0.011687994 -0.17601761 -0.06611197 0.0028975708 -0.026406707 -0.24420765
0.1171796 0.027917918 0.053803958 -0.10439289 0.0025182315 -0.09035375 0.17798932 0.040464062
0.03562366 -0.033352677 0.0881944 -0.14547338 -0.12786661 -0.031073784 -0.10101851 -0.098928906
-0.0046289014 0.17077886 -0.062635265 -0.013764491 0.19429077 -0.028808305 -0.1859887 0.05412303
0.15822288 -0.21223018 0.055562582 -0.08574127 0.122456536 0.15023191 0.06829172 -0.16746102
-0.007156411 -0.07721181 0.10188799 -0.2019196 0.16653757 -0.0095885815 0.049319364 0.068425484
0.1994786 0.083025336 0.021157248 -0.18911836 -0.1848579 -0.030960057 -0.21114612 0.06766745
-0.09755663 -0.106538534 -0.1268615 -0.07641405 0.081546515 -0.04048024 -0.19644 -0.17968391
-0.20636708 0.12312624 0.19435129 -0.06449031 -0.103831895 -0.011467798 -0.3050631 0.008341474
0.071779005 -0.09777912 0.059454057 0.11142607 0.08080465 -0.05209235 -0.12213648 0.13329124
-0.0035128666 -0.16955909 -0.1140537 -0.06329836 -0.17222808 -0.01960724 0.05417019 0.087810054
-0.008494934 -0.00061712385 0.122679025 -0.07920371 -0.15069242 -0.08228584 0.091826014 0.16145481
-0.0027493846 -0.23119618 0.06523435 0.18845409 -0.06316567 0.27258283 0.16841176 0.13380541
-0.07158997 0.056685433 -0.04289357 -0.18344271 -0.12110094 0.0165652 0.016390882 -0.0983579
-0.019006163 -0.025639826 0.060202654 0.23119554 -0.054411035 0.17241618 0.0002622686 -0.056812983
-0.17582259 -0.06607862 0.39771393 0.032244362 -0.069300234 -0.009023272 -0.10414559 0.03876779
-0.10775669 0.10414723 -0.10430605 0.023140201 -0.00981909 -0.01744206 -0.26929832 -0.15137781
0.10448215 0.19148651 0.027124261 -0.08140452 -0.15526967 0.09706911 0.08466064 0.010943704
0.033725813 0.060313743 0.1272629 -0.09711473 -0.19292238 0.020966534 -0.20985875 0.08078309
0.08473849 -0.13652197 0.26638207 -0.10575693 -0.07184061 -0.14262943 -0.039025128 -0.14652231
0.017054498 0.1687489 0.011051435 -0.16403402 0.024264544 0.04610852 0.007655385 -0.0046826773
-0.009033953 0.11449272 -0.1728714 0.07167764 -0.28892896 -0.03558531 -0.06527048 -0.2212353
00000000: 220f 8e3d fa6c 39bd d1f3 10be 6ba9 483d
00000010: 311b 753e 9be8 bfbd 2e8d 0abe b51a 1b3e
00000020: 03d1 b3bd c689 3cbc b5f0 df3d a668 ed3c
00000030: 93fd 873d 476a 06be 19b5 5e3e f2fd ddbd
00000040: ae5c 8b3d f974 06bc 9849 7dbe f0a1 613e
00000050: bb63 73bb 0c6e 7dbd 1b9d 60be 8dfb 8bbb
00000060: 3172 c53d 2100 073d 3f52 11bd 9bb3 93bd
00000070: 326c ba3d 6e96 f53c f69d c93d 2ddc 10be
00000080: 57bb 163e f9d8 983d 3be6 13be 2110 ebbd
00000090: 51da 74be 03a4 8b3d 6479 12be 3165 ee3d
000000a0: 7458 073d fb72 f9bd 5272 c3bc 8439 413e
000000b0: fec6 90bc 753b 3dbc 3bae d13d f16d 853d
000000c0: a5e2 46be 4557 78bc bd6e 943e 34ef 233d
000000d0: b217 55be 4ada 983d 7018 343e c952 593d
000000e0: e073 163e 087c 07bd b516 08be 62c2 903c
000000f0: 4c4d 99bd 139b 123d 06fa 523c f0fd 0d3c
00000100: e944 323c 8d01 983c 482a 543c 8845 0dbe
00000110: 3487 df3d 844f f63d 2568 21bc 4cdc 933d
00000120: 4be1 e03c a887 8a3d 31a6 a33d 42aa 883c
00000130: 1a54 3c3c 6c49 a53c 6e2a a2bc a490 3abe
00000140: 94f0 5b3e db1d 673d 007f 3f3c f63d 34be
00000150: b665 87bd 2ce5 3d3b e152 d8bc 9211 7abe
00000160: dcfb ef3d 1eb4 e43c 8a61 5c3d f1cb d5bd
00000170: ea08 253b 630b b9bd d542 363e a5bd 253d
00000180: 1dea 113d d19c 08bd 449f b43d f9f6 14be
00000190: 77ef 02be 738e febc cbe2 cebd 3d9b cabd
000001a0: 0aae 97bb a7e0 2e3e eb46 80bd 7684 61bc
000001b0: 29f4 463e 65ff ebbc d273 3ebe 1cb0 5d3d
000001c0: 2e05 223e de52 59be 9795 633d 1e99 afbd
000001d0: 7eca fa3d 65d6 193e 87dc 8b3d e77a 2bbe
000001e0: 5480 eabb 3a21 9ebd a7aa d03d 03c4 4ebe
000001f0: d388 2a3e 6d19 1dbc 1a03 4a3d a922 8c3d
00000200: 1e44 4c3e 3009 aa3d f751 ad3c 3ea8 41be
00000210: 644b 3dbe f29f fdbc b036 58be 3b95 8a3d
00000220: c5cb c7bd e030 dabd fbe7 01be f87e 9cbd
00000230: dc01 a73d 9cce 25bd 9127 49be 0fff 37be
00000240: e451 53be 9c29 fc3d 0604 473e 7f13 84bd
00000250: d1a5 d4bd 6ee3 3bbc 3b31 9cbe aeaa 083c
00000260: df00 933d 6b40 c8bd 1986 733d 5a33 e43d
00000270: e97c a53d ca5e 55bd b122 fabd 807d 083e
00000280: 1f38 66bb e6a0 2dbe fc94 e9bd 92a2 81bd
00000290: 8f5c 30be 5d9f a0bc 90e1 5d3d c2d5 b33d
000002a0: 562e 0bbc 7bc6 21ba 243f fb3d 8e35 a2bd
000002b0: 1d4f 1abe 7a85 a8bd 470f bc3d 6954 253e
000002c0: 052f 34bb b1be 6cbe 9699 853d 1cfa 403e
000002d0: 015d 81bd fa8f 8b3e 2274 2c3e 4904 093e
000002e0: c39d 92bd fc2e 683d 2bb1 2fbd 68d8 3bbe
000002f0: c503 f8bd beb3 873c 2c46 863c de6f c9bd
00000300: d0b2 9bbc 9d0a d2bc 0f97 763d 86be 6c3e
00000310: 1bde 5ebd de8d 303e 1881 8939 bbb4 68bd
00000320: d60a 34be 3a54 87bd 29a1 cb3e aa12 043d
00000330: 48ed 8dbd 59d6 13bc 484a d5bd f9ca 1e3d
00000340: 8aaf dcbd 254b d53d 699e d5bd 8590 bd3c
00000350: 40e0 20bc a7e2 8ebc 78e1 89be c902 1bbe
00000360: bdfa d53d 0a15 443e b333 de3c 6ab7 a6bd
00000370: 03ff 1ebe 2bcc c63d 8f62 ad3d 394d 333c
00000380: 1424 0a3d 8b0b 773d 3551 023e 16e4 c6bd
00000390: 728d 45be 02c2 ab3c 36e5 56be 9b71 a53d
000003a0: 608b ad3d 6acc 0bbe 3b63 883e 1797 d8bd
000003b0: 2b21 93bd 730d 12be d0d8 1fbd f209 16be
000003c0: e0b5 8b3c 83cc 2c3e 1411 353c 89f8 27be
000003d0: 70c6 c63c 4adc 3c3d 06da fa3b 2571 99bb
000003e0: 2503 14bc 297b ea3d 3305 31be bacb 923d
000003f0: 7fee 93be e7c1 11bd 88ac 85bd 828b 62be

fc2.bias f4 [50]
0.06365087 0.09991562 0.12375631 -0.06491652 0.15256141 -0.09672357 0.07707 -0.082479395
-0.011256158 -0.27987534 -0.2115207 -0.077719375 0.20947029 0.094747424 0.04060321 0.048314642
0.08961788 0.07129229 -0.11016873 -0.08676394 0.22051534 -0.10680976 -0.0031761774 0.03722188
-0.19406117 -0.024723275 -0.066935934 0.17539756 -0.110752985 -0.05271803 0.19980595 -0.15203953
-0.22296453 0.03924258 0.0833791 0.18971564 -0.067166105 0.04174824 0.17096727 0.09232857
-0.014292542 -0.16554521 0.09238719 -0.12637886 0.014526721 0.12869568 0.04666094 -0.0989422
0.06655478 0.105866626
00000000: 635b 823d 90a0 cc3d f373 fd3d f4f2 84bd
00000010: 0f39 1c3e 0217 c6bd e0d6 9d3d f5ea a8bd
00000020: c06b 38bc d24b 8fbe e298 58be 562b 9fbd
00000030: 617f 563e f00a c23d 8d4f 263d 93e5 453d
00000040: 9489 b73d b101 923d 25a0 e1bd 4bb1 b1bd
00000050: c6ce 613e 13bf dabd 6a27 50bb f875 183d
00000060: f9b7 46be 7788 cabc b515 89bd 6b9b 333e
00000070: 76d2 e2bd dcee 57bd ee99 4c3e 40b0 1bbe
00000080: d050 64be d4bc 203d a9c2 aa3d d144 423e
00000090: 628e 89bd 3400 2b3d 0b12 2f3e c316 bd3d
000000a0: 442b 6abc af84 29be 7f35 bd3d 7669 01be
000000b0: 7c01 6e3c cdc8 033e 8b1f 3f3d 35a2 cabd
000000c0: df4d 883d 9ad0 d83d
